pytorch/experiments/base_model/best_model.pth.tar (torch_old, 536637 bytes, 30 tensors)

conv1.weight f4 [6, 1, 5, 5]
00000000: 5095 e9bd f357 b9be 96e1 f1be 06a1 933e
00000010: e7d0 0bbe f479 8dbe f3d6 663c eaa5 98be
00000020: 1684 e03e 3613 eebd 4db0 b8bc 22fc c83c
00000030: eb82 6a3e 99a7 0d3e 6459 933e 9a35 c13d
00000040: 1a82 693c c949 933e a388 67be b910 2e3c
00000050: 3268 f83c 9c9e 6cbd 6c8a 153e 8dcd 123e
00000060: e0f9 12bd 86fe 88be 481a 1f3d b7f6 b13e
00000070: 0ce8 073f 104f 033e 63e6 233e 988d 853d
00000080: e95c 8dbd f982 d13d 1d92 8ebd 9744 4a3e
00000090: 7148 c7bd 0056 40be d3e5 8bbe 8c38 6a3d
000000a0: 70ef 61bd fe89 5abe 712a 70be dbad 9fbe
000000b0: fbd4 c1bd 0c21 663d 33fa 173d acc4 2cbc
000000c0: eb2c 51be be80 d8bd f557 853e b8a0 0c3e
000000d0: 3563 1b3e f13c 343e 172b 35be 99ad 893d
000000e0: cd25 673e af87 cbbc 1760 7e3d a12b 8dbe
000000f0: 5b8b 3bbe db5d 1abe a71f 1a3e 5fd9 0d3e
00000100: 964e 19bd f8d0 29bc a65c dabd 34b0 253e
00000110: f93e de3d 82bb 363e 515f 233e fa94 edbd
00000120: 8d46 fc3d 996b 813e a4a8 8dbd 77c4 34bd
00000130: 7e53 d43d c420 bf3d f4cf 5abe 0cba 3cbe
00000140: fb7c 83bd e38a 10bd 33ad 6cbe 26e2 05bf
00000150: 2ed2 41be 04f9 d3bd 904c 75be bcaf 78be
00000160: 89d0 e1be 163c 88bd f7dc 2d3e 7edf 1a3e
00000170: 2413 80bd f1ae 2abe ef64 94be f792 5a3e
00000180: 1b77 333d e1ed 83bd a6ad d6bd 51d7 0bbe
00000190: f3f4 c63b 565a a53e 95ce cb3d 5ff7 80bd
000001a0: d30f 2bbf e81f a9bd 75ac 483d 4819 053f
000001b0: 464b 493d 6e33 0fbf d6dc 333d dd7f 443d
000001c0: 728f ecbc c267 293e 9e5b 4e3d 2368 7cbe
000001d0: f8ed 843e aa3a 4c3b b662 413e 9b73 3abe
000001e0: 18ef 50be 0d1e a03e 9236 e0bd 98e4 293e
000001f0: 4544 12be 16cb 3d3c e68e ccbe c780 693e
00000200: 4a70 bdbc 36cd 953e e8fb 0dbe ef38 ffbe
00000210: 1324 9c3e 06e8 a93e 3ce3 c3bd c43a 8f3d
00000220: c20f e4be a3d1 dc3e d806 f93d d10d 33be
00000230: 1a5a 28be a0ea c0be 4d43 123f 1483 ddbd
00000240: 2401 e43d 1c9c a7bc aa55 86be 26a8 403e
00000250: b989 5f3e 0adc e4bd
-0.11405432 -0.36199912 -0.4724242 0.2883379 -0.13653909 -0.27632105 0.014089334 -0.29814082
0.43850774 -0.11624758 -0.022545004 0.024534289 0.22901504 0.13833465 0.28779137 0.09434052
0.01425221 0.2876723 -0.22610717 0.010624104 0.030323122 -0.05776845 0.14603585 0.14336224
-0.03588283 -0.26756686 0.038843423 0.3475854 0.5308845 0.12823129 0.16005854 0.065211475
-0.06902487 0.10230059 -0.06961463 0.19752727 -0.09730614 -0.18782806 -0.2732378 0.057182834
-0.055159986 -0.21341702 -0.2345369 -0.3118733 -0.09464451 0.05618386 0.037103843 -0.010544937
-0.20427291 -0.105714306 0.26043668 0.13733184 0.15174563 0.17601372 -0.17692219 0.06722564
0.22573014 -0.024844972 0.062103357 -0.2757235 -0.18314879 -0.15074866 0.15051137 0.13852452
-0.03742846 -0.010364763 -0.106622025 0.16180497 0.10851855 0.17844966 0.15954329 -0.11600681
0.12318144 0.25277403 -0.06916931 -0.044132676 0.10367487 0.093324214 -0.2136839 -0.18430346
-0.064203225 -0.035288703 -0.23112945 -0.522982 -0.18927833 -0.1035023 -0.23954988 -0.24285787
-0.44104412 -0.066520855 0.16978823 0.15124318 -0.06253651 -0.16668297 -0.28983256 0.21345125
0.04381476 -0.06441856 -0.104823396 -0.13656355 0.0060716807 0.32295483 0.09951512 -0.06297182
-0.6682102 -0.08258039 0.048992593 0.519917 0.049144052 -0.5593785 0.043911777 0.047973502
-0.028876994 0.16543487 0.05038034 -0.246491 0.25962806 0.0031162896 0.18885311 -0.18208162
-0.20403707 0.31272927 -0.109479085 0.16591108 -0.14283855 0.011584064 -0.39952773 0.22803031
-0.023124833 0.29258126 -0.13865626 -0.49848124 0.30496272 0.33184832 -0.09564826 0.069936305
-0.44543272 0.4312869 0.121595085 -0.1748574 -0.16440621 -0.37679005 0.5713394 -0.10816017
0.1113303 -0.020460181 -0.26237231 0.18814144 0.21829881 -0.111747816

conv1.bias f4 [6]
00000000: 12ea 563e 088e 4ebd fa0b 5abd fe59 4ebf
00000010: 8a5f e8bc fe75 b4bb
0.20987728 -0.05042842 -0.053234078 -0.8060607 -0.02836587 -0.00550723

conv2.weight f4 [16, 6, 5, 5]
00000000: 80e8 053e 5644 ecbd b9e9 273c 8721 21bd
00000010: 4555 973e ed07 0abd 8b35 6d3c 1512 40be
00000020: fb7b 67be dbfb 553e 8c37 47bd dc8e 2e3e
00000030: 50c0 23be bf85 74bd e921 6e3e 66e6 8abe
00000040: 3cf7 103e a83e efbc f60b 3ebd 6b3a 1a3e
00000050: d2c6 21be c593 3b3e 0206 71be 504e 05be
00000060: 4533 093e 416b fdbd af92 2fbc 8495 d0bd
00000070: 9c67 b23c 8913 18bd 821c 28bd adc4 ff3c
00000080: a6ed e53b 6b1f 9a3d ac13 ba3c f856 21bd
00000090: 6928 38be 7165 2dbe 72a5 923d 47ad 233e
000000a0: a13b ad3d 7924 523d 7918 76bc ce2c 9a3d
000000b0: f3b1 91bd 3345 a63c 0ea6 afbd d5d0 143d
000000c0: de2c 4ebc 6337 d0bd fffd 2abd 9e71 053e
000000d0: f967 803b 3ad0 1dbe 5c5c eb3d 25b8 223e
000000e0: b5ba 203d e7f9 e9bd 3bf0 cfbd ebe2 15bd
000000f0: 4887 7b3d 345d d03d 628e 28bd b92d e2bd
00000100: 466a bb3d 183e b5bd a9e1 83bd 0bf6 873d
00000110: 97f1 0b3d 82e0 463e 1b4a d83b d622 fe3d
00000120: d6f9 0dbe 6ff3 d9bc 28fc 273e 9c1f b83d
00000130: 639c 8c3d b9d0 c13d 37ae 693e 2b39 4f3d
00000140: 55c9 ae3c 37ce ae3c ca42 9c3d 1925 003e
00000150: 29a5 d0bd 3a5d 063e b41f e7bd fadb 9abc
00000160: dc9c 223c ee94 82bc a6fe 123e 1a61 18be
00000170: 30ab 1fbe db4c 8abd 1a0c 52bd 2fe8 443e
00000180: 43ee 8bbd b5dc aebd 1d6b 70bd 0569 e2bd
00000190: 1c02 92bd b720 d53d 2b0e 233e 7e35 b3bc
000001a0: 72bc 2fbe 2e2f a3bd 83c5 d73d 78a7 d23d
000001b0: bcd3 a0be 047d 073e cf40 c6bd 11df 833d
000001c0: 22eb 1f3e 5e2c 47be 1bcf 29be f0cf b2bd
000001d0: d63d ce3d 18e3 413e 80d1 00be 9ebb 35bd
000001e0: 450c 5d3e a32c 943d 8680 95bd bfe0 87be
000001f0: baf3 0a3d 4986 963d addc 183c 6800 093e
00000200: ea90 09bf 5b60 33be 92a6 9dba dc4d 963d
00000210: b890 703c 3caf 1abf 1da5 05be 7b3d f73c
00000220: 026f 9d3c 7489 883d 8202 7ebe 759b 72bd
00000230: 603e 0bbd 675a 0e3d c34c d13d 2db6 b9be
00000240: b2de a6bd fa8a 4a3e 92a2 1f3e e7c3 c03c
00000250: 863d d4be 826a 32be 35be 10be 7adc 683e
00000260: 0b12 b23d c2b8 063e 9668 ad3e 42d5 603c
00000270: 0772 da3d 1244 1dbe 8f67 2e3e 79f2 5fbe
00000280: 2838 d13a d406 943a a9cd 34bc 2131 803e
00000290: 865d 4f3d baf8 123d f838 9f3d 5631 5abd
000002a0: 04ff 143e d1d9 6c3d e876 26bd 1a6c 09be
000002b0: ea16 1a3e 2481 773e 619f b53d 57b3 623c
000002c0: 636b 293d 5352 3b3b 961b 653b 155e 173e
000002d0: b084 b4bd 6e26 6dbd 4ec2 ad3d 14d5 ad3b
000002e0: 664d c93d 0c4c f6bd 94cd eebd 743d cfbd
000002f0: 5c16 ee3d 3079 94bd d4ad cfbd bdd3 c3bd
00000300: 65ce a6bd 45b7 14be a1cc 67be 1563 b83d
00000310: 7d84 d33d 07c5 18be a8b8 9b3c 02a9 2bbc
00000320: dd4c 023e cba3 aebd 5475 6ebe 4804 8dbe
00000330: 4769 bbbe d8ec 0e3e 2628 7bbd 2ffa 5cbe
00000340: 623d 5bbe cf7d 77be b4c8 273e be3f 8cbd
00000350: f2a6 67bd 9ce0 b6bd fc41 72bc 1388 81bd
00000360: 352f b23d 6f82 393e be46 c53d 3052 463e
00000370: 9e65 57bd 15c3 bdbd f028 a43d 5aed ae3d
00000380: d809 d23d 7789 3fbc fd1f 72bd 5a11 233e
00000390: 1c49 7d3e f042 a43e b7e3 073e f571 abbc
000003a0: 6a55 b3bc e46a ac3c 0769 b33d 67df 1e3d
000003b0: ad36 683c 329f 08be 3ae6 cabd f79b cf3d
000003c0: b575 e9bd edd0 d8bd 7f8b bfbd 8674 84be
000003d0: 8a54 3fbe 792a 823c 4682 b4bd b92d 80bd
000003e0: e91d b2be b5f9 00be 5085 1b3e 3ca4 cc3e
000003f0: 981c 0b3f 270b 2d3e b201 403c b018 593e
0.13076973 -0.115364715 0.010248595 -0.039338615 0.29557243 -0.033698965 0.014478098 -0.18756898
-0.22605889 0.20896856 -0.048636958 0.17046684 -0.1599133 -0.059697863 0.23255123 -0.27128905
0.14156812 -0.029204682 -0.046398126 0.15061347 -0.157985 0.18318088 -0.23537448 -0.13018155
0.13398464 -0.12373973 -0.010716124 -0.10184768 0.02177792 -0.037128005 -0.041042812 0.031221712
0.0070168553 0.07525524 0.022714458 -0.03938958 -0.17984165 -0.16933228 0.071604624 0.15984069
0.08458639 0.051304314 -0.015020483 0.07528077 -0.07114019 0.020296669 -0.08576594 0.03633197
-0.012583939 -0.10166814 -0.041746136 0.13031623 0.0039186445 -0.15411463 0.114922255 0.15890558
0.039240558 -0.11424618 -0.10153242 -0.03659336 0.06140831 0.10174027 -0.04115141 -0.11043877
0.091511294 -0.08849734 -0.06439526 0.06638726 0.034165945 0.1942158 0.006600631 0.12408988
-0.13864836 -0.026605336 0.16404784 0.08990404 0.06865766 0.09463639 0.22820364 0.05059163
0.021336237 0.021338565 0.076299265 0.12514152 -0.10187752 0.131215 -0.11285344 -0.018903721
0.0099250935 -0.015940156 0.14354953 -0.14880791 -0.15592647 -0.0675294 -0.051281072 0.19229196
-0.06832554 -0.0853819 -0.0586959 -0.11055187 -0.071293086 0.104066305 0.15923373 -0.021876093
-0.1716173 -0.07967983 0.10535719 0.102858484 -0.3141154 0.13231283 -0.0968033 0.06439031
0.1561704 -0.19450518 -0.1658291 -0.08731067 0.10070388 0.18934286 -0.12579918 -0.04436838
0.21586712 0.07235076 -0.072999045 -0.26538655 0.033923842 0.073498316 0.009329957 0.13379061
-0.53736746 -0.17517225 -0.0012027791 0.07339069 0.014682941 -0.60423636 -0.13051267 0.030180683
0.019217972 0.06666842 -0.24805644 -0.059230287 -0.033995032 0.034754183 0.10219719 -0.36271802
-0.081479445 0.19779578 0.1558936 0.023530914 -0.4145319 -0.17423442 -0.14135058 0.22740355
0.08694848 0.13156417 0.33868855 0.01372272 0.1066628 -0.15357998 0.17031692 -0.2186984
0.001596217 0.0011293539 -0.011035361 0.25037482 0.0506263 0.035881735 0.07774538 -0.053269707
0.14550406 0.057824913 -0.04064074 -0.13420144 0.15047804 0.24170357 0.0886829 0.013836703
0.041362178 0.0028583005 0.003495907 0.14781983 -0.08814371 -0.057897978 0.08484326 0.005304942
0.09829216 -0.120262235 -0.11660305 -0.10119143 0.116253585 -0.07249677 -0.10140577 -0.0956187
-0.081448354 -0.14523037 -0.22636653 0.090032734 0.103280045 -0.1491891 0.01900895 -0.010477306
0.12724634 -0.08527335 -0.23286945 -0.2754233 -0.36603758 0.13957536 -0.061317585 -0.21579812
-0.21410134 -0.24169086 0.16385156 -0.06848095 -0.056555696 -0.089295596 -0.01478624 -0.06324782
0.0870041 0.18116163 0.096326336 0.1936729 -0.052587144 -0.092657246 0.08015621 0.08541365
0.10255784 -0.011690489 -0.059112538 0.15924588 0.2473492 0.3208232 0.1327046 -0.020928362
-0.021891315 0.021047063 0.08760267 0.03878727 0.014173192 -0.13341978 -0.099071935 0.1013717
-0.11399404 -0.105867244 -0.09352779 -0.2587015 -0.18684593 0.015889393 -0.0881391 -0.06258721
-0.34788445 -0.12595256 0.15187573 0.3996905 0.54340506 0.16898786 0.011719154 0.21200824

conv2.bias f4 [16]
00000000: 078d 4c3e 9138 05bd 934b 2dbe 31ea 8ebd
00000010: bbc8 74be 174c 533d 1bb0 243d 8fe3 d6bd
00000020: 3f23 06be 63bb 39be 6449 b43b 8a5f 44be
00000030: a4b1 093d 3fc5 d8bd 276d e83e 8cba 0ebd
0.19975673 -0.03252465 -0.1692336 -0.06978262 -0.23904698 0.051586237 0.04020701 -0.10492622
-0.13099383 -0.18137889 0.005501913 -0.1917707 0.033616677 -0.10584497 0.45395777 -0.034845874

fc1.weight f4 [128, 256]
00000000: f897 77bc 5409 babd d529 023e 131a cc3b
00000010: 508c 9a3c 9833 96bd b38b 9c3e 7e70 66bd
00000020: a3ea 59bd 5356 94bd a531 003e f295 d13c
00000030: 1fff fabc c5d6 dcbd fa9a f33c 160a 20bd
00000040: 5b48 8abc fc5f a3bd 956b 573e 8ca8 f93d
00000050: ea1e 85bc 00de 8cbd 83b0 af3d 1770 693d
00000060: d260 d53c e3a6 9dbd 33ea f73d 1526 d6bd
00000070: 2ba5 1f3e 85a7 24bc 07ab 113e fa84 293d
00000080: b03c 0a3d b2f1 d43d 019f 28be c467 26be
00000090: 7429 093b f47e e9bd 91a4 e1bc 0e39 0d3e
000000a0: 9af0 6dbe 9826 87be 1e7a a43d 8596 6dbb
000000b0: 73d5 7abd 5acf 65be f653 c5bd 5ec1 72bd
000000c0: c664 60be c510 173e fa4b febd 9926 933c
000000d0: 7ec9 bc3d 9d86 b9bd fe68 cfbc 4b67 7abd
000000e0: 50f9 02bd ed83 283e c13c 633d 9735 d4bc
000000f0: 85ec bebc d8a4 c9bd fd73 99be 61fa 4abe
00000100: 3429 a0bc c091 57bd a0fc 513c e11c dcbd
00000110: 2c1d 96bd 8de2 73bd 5ea9 243e ac2d 923e
00000120: d329 0abe e50b 52bd 5faf 8dbd 3fb2 ff3d
00000130: 4a5a 82bd b2cc 5bbd 10e0 e6bd 4b09 ca3b
00000140: 7387 02be 9cda 4abd 4710 13bd 71c8 bdbd
00000150: 1b45 c23b 0314 003d 975f 53bd 4e1b 0cbd
00000160: 19f3 d4bc 20a9 9fbd 5df0 c93d 3842 053d
00000170: 8800 36bd 9ab7 5abc 6aa3 cb3d c1b5 7a3e
00000180: 1c22 123d e07a d5bc 826c 44be ec2d af3d
00000190: c221 ba3d dc20 2cbe a890 3dbe dc5c 05bd
000001a0: 3a45 99bd 80c1 b5be 4fc9 acbe ec02 153e
000001b0: 5c63 c2bd 30fc afbd eeb0 debe ca2f 513e
000001c0: 2286 093d 8a99 0c3e 2e24 e2bd 2ef4 d8bc
000001d0: 8574 fb3d 4626 00bf abca c13c 5cf0 fc3c
000001e0: 5bc9 80bd b2a8 13be 6d3e e8bd 2a0d 65be
000001f0: 99df 233e cd70 3cbe 661b 103e 0caa 4d3c
00000200: 0069 513e 4e3f 633d 5694 d03d efd2 443e
00000210: 73be 633d 85d8 f53d 6875 33bd e70e a3bc
00000220: 16c7 103e 6eca 0f3e 66c4 a4bd 0505 813d
00000230: 0da3 653c 160f 1abe 0e8b d9bd 47d6 ac3c
00000240: de80 dabc 280d 9dbc c211 1ebe 32c0 ac3d
00000250: 6b9c d03c 6e7f 0bbe dd65 21be 0d86 bebc
00000260: 748d 96bd b5b8 83be 4c7e c4bb dd2f 49bd
00000270: 65a6 a2bd 619e 403e 7355 dcbd fa93 f63b
00000280: cf7d bebc 256b dfbc 900d 9fbc 7e6b 0a3e
00000290: 7fd7 62bd 7b87 94bc 9f48 4ebd 427a 0b3b
000002a0: cb9c 16bc 8c12 aa3d c7b9 90bd 57e3 a6bd
000002b0: 4ec3 ac3d b4e7 363c f5de 05be 361f 1b3e
000002c0: 8c97 973d 648f 8b3d 4393 3b3e bde1 a33d
000002d0: 4681 d03b 71bf 35be 9912 053e 5f9f 77bd
000002e0: c4a3 ebbd 83e4 94bc 911f 373e d8ef 24bd
000002f0: 93c3 723d 4215 9cbd 84f5 b9bd 3bfd a5bd
00000300: 56f9 b3bc 4622 7b3d 0864 043e c331 abbd
00000310: caee 693c 067a bf3d 50e7 1ebd 66c0 8f3d
00000320: 2ec6 26ba 5150 2a3d 7fce 813d 26e8 ad3d
00000330: d55a 42bc 2fd6 8abd dc6d 253e 9fb8 803d
00000340: e4a0 82be e97d c33c a117 1c3e 3c20 e23c
00000350: 198f c9bd b82e aebd 99f7 00bc 217f 6ebd
00000360: bfbb 82be 7553 f6bd b0cb 403e 68f0 85bd
00000370: 8413 92bd 55f0 b93d e582 913d 398c c73b
00000380: 7369 353e e05c 04be b1e8 2bbe 9058 83be
00000390: 727c 123e e835 13be 1d28 e0bb 5630 a4bd
000003a0: 069b 8bbe 8d67 0dbf f3d8 c7bd 138d b43d
000003b0: e64d abbe 3161 bebe 7660 bcbc bf9e 06be
000003c0: 3af5 3abd 9d2e dbbd fe60 3fbe 0bd8 98bd
000003d0: 5c57 4bbb e58c 2e3d ca11 dfbd 2fe5 0e3e
000003e0: e2f7 23be 64a8 2d3d 2f5a 9bbb 786f 30bc
000003f0: 443b 92bc 47f8 db3d d372 11be a544 f1bd
-0.015111916 -0.090838104 0.1271127 0.006228694 0.018865734 -0.073340595 0.30575332 -0.056259625
-0.053202283 -0.072430275 0.12518938 0.025584195 -0.03063923 -0.107831515 0.029736985 -0.03907212
-0.016880205 -0.07977292 0.21037133 0.12190351 -0.016250093 -0.06878281 0.08578589 0.056991663
0.026047144 -0.07697847 0.12105217 -0.10456482 0.1559035 -0.010049705 0.14225398 0.041386582
0.033749282 0.10397662 -0.16466905 -0.16250521 0.002092925 -0.114011675 -0.027544292 0.13791296
-0.23236313 -0.26396632 0.080311045 -0.0036253047 -0.061238717 -0.2244238 -0.09635155 -0.05926644
-0.21913442 0.14752491 -0.12416835 0.01796274 0.09218119 -0.090588786 -0.025318619 -0.061133664
-0.031976044 0.16456576 0.05547786 -0.02590446 -0.02330614 -0.098458946 -0.29971305 -0.19822074
-0.019550897 -0.052629232 0.012816578 -0.10747696 -0.07329783 -0.059542228 0.16080233 0.2855047
-0.13492517 -0.051280875 -0.06918215 0.124851696 -0.063648775 -0.05366201 -0.11273205 0.0061656586
-0.12746982 -0.04952489 -0.035904195 -0.09266747 0.005928648 0.031269085 -0.051604833 -0.034205727
-0.025994824 -0.0779593 0.09860299 0.032533854 -0.0444341 -0.013349438 0.09943278 0.24483396
0.03567706 -0.026059568 -0.19182017 0.08553681 0.0908847 -0.1680941 -0.18512213 -0.03255926
-0.07483907 -0.3549919 -0.33747336 0.14551896 -0.094916075 -0.08593023 -0.43494362 0.20428386
0.033575185 0.13730446 -0.11042057 -0.026483621 0.12278084 -0.500584 0.02365621 0.030876331
-0.062884055 -0.14419821 -0.11340032 -0.22368303 0.16003264 -0.18402405 0.14072952 0.012552749
0.2045021 0.055480294 0.10184543 0.1922109 0.05560155 0.120041884 -0.04381314 -0.019904567
0.14138445 0.14042065 -0.080452725 0.062997855 0.014015925 -0.15044817 -0.10622226 0.02109827
-0.026672777 -0.019171312 -0.15436462 0.08435096 0.02546521 -0.1362283 -0.15761514 -0.02325728
-0.07351199 -0.25726858 -0.005996501 -0.04911791 -0.079418935 0.18810417 -0.10758486 0.0075249644
-0.02325335 -0.02727277 -0.019415647 0.13517568 -0.055381294 -0.018131008 -0.050362226 0.0021282588
-0.009192656 0.08304319 -0.07066684 -0.081488304 0.08435689 0.011163641 -0.13073333 0.15148625
0.07401952 0.06814459 0.18317895 0.080020405 0.006363067 -0.1774881 0.12995376 -0.060454722
-0.11505845 -0.01817537 0.17883135 -0.040267795 0.059268545 -0.07621242 -0.090800315 -0.081049405
-0.021969479 0.061311983 0.12928784 -0.08359101 0.014278123 0.09349446 -0.038794816 0.07019119
-0.00063619285 0.041580502 0.06338214 0.084915444 -0.011862476 -0.067791335 0.1615519 0.06285214
-0.25513375 0.02386375 0.15243389 0.027603261 -0.09841747 -0.08505005 -0.007871532 -0.05822671
-0.25533864 -0.12027637 0.188277 -0.065399945 -0.071326286 0.09079043 0.07105044 0.006089714
0.17716007 -0.12926054 -0.16787983 -0.25653505 0.14305285 -0.14376032 -0.0068407194 -0.08017032
-0.2726671 -0.5523613 -0.09758177 0.0881597 -0.3345787 -0.37183526 -0.022995215 -0.13146494
-0.045644023 -0.1070225 -0.18689343 -0.07463082 -0.0031027412 0.042614836 -0.10892065 0.13954614
-0.16012529 0.042396918 -0.0047409753 -0.010768764 -0.017850526 0.107407145 -0.14203958 -0.11780671

fc1.bias f4 [128]
00000000: fc41 523d b550 7abc 1ec4 cd3c 78fa aa3c
00000010: 9a58 acbb 48c2 87bc 5a48 00bd 5b36 a33d
00000020: 8c2a a8bc b040 acbd 8fa8 82bd c2ba 80bd
00000030: 7f14 c03d 9591 f33d 579c 02bd a86f e53d
00000040: a626 65bd a481 4c3d 25b1 30bc 5506 8bbd
00000050: af40 de3d c90c ab3c 0330 913c e0fa aabd
00000060: 3b1b 1a3d e444 833d 8ac5 a2bd 361c 373d
00000070: fbca c6bc 8ed2 533d f710 3d3d 57df 3c3e
00000080: ea14 0d3d a07f 9cbd a9c8 88bd 1248 7e3d
00000090: e361 96bc 3d74 a53d 0e49 8f3d ca97 b23c
000000a0: afbd 273d 066a b03d 0595 cfbd 8c5c b2bd
000000b0: 0cda 15bb 3cfc da3d d72a fe3c 60b8 95bc
000000c0: ba4b af3b bab6 fa3d 5f0a 3a3e 0c16 033d
000000d0: ffc3 fb3d ae6e 393d d7a4 fc3d 5928 0f3e
000000e0: 51bd 4e3e 494b 743d c6ea 43bc 3495 013e
000000f0: 1446 c93b fa65 98bd 20dd 7e3b 79cd 1f3e
00000100: a2ea a5bd e796 a8bd 3ca5 8f3d 3618 2bbc
00000110: be76 21bb 3d43 863d 3b6d 56bd c5fe 2a3e
00000120: 8a5a 033d 0fc2 083e 2d95 5e3e 58b5 8bbd
00000130: be9b 253d 354a 08bb 86a7 a0bb 5c6a 1d3d
00000140: a710 88bd e592 8abd 3824 9f3d 5949 2d3d
00000150: e65e 373e e138 113e f9ea 82bc cb79 80bd
00000160: 6799 d83c c8dd c5bd 5b70 95bc 9f5f 17be
00000170: bd89 eabc aca4 bc3d e5d9 cb3c 6944 2d3d
00000180: 8450 423e 2822 133d 8545 1e3d 2035 1c3e
00000190: ebb9 fa3d 065d 193c 4ead 9dbb 66f6 4a3d
000001a0: 91f6 3f3c 5e6c 753d e066 5cbd bb45 d0bc
000001b0: ae80 f03d a266 8a3c dbb3 5ebd 19c3 623d
000001c0: c1bf 8e3d a081 3cb9 9825 813d 7b6b 713d
000001d0: dcd5 7bbd 1b6d 9c3d bc08 253c f694 163e
000001e0: 3d35 b23d e5fe 9bbb 3b4d a7bd 902b edbc
000001f0: bc36 21bd 2e4d be3d 1eb9 443d 009d d3bd
0.05133246 -0.015278031 0.02511793 0.020871386 -0.0052595856 -0.016572133 -0.031319 0.07969352
-0.0205281 -0.08410776 -0.06379806 -0.06285621 0.09378909 0.11893002 -0.03188738 0.11202937
-0.05594506 0.049928322 -0.010784422 -0.06788317 0.10852181 0.02088012 0.01772309 -0.08348632
0.037623625 0.06409624 -0.07947834 0.04470464 -0.02426671 0.051714472 0.046158757 0.18444572
0.034443773 -0.0764153 -0.06678898 0.06208045 -0.018357223 0.08078811 0.06996356 0.021800894
0.04095238 0.08613972 -0.10135845 -0.08709058 -0.0022865562 0.10692641 0.031026287 -0.018276393
0.0053496035 0.122418836 0.18168019 0.032003447 0.12293243 0.045271568 0.12336128 0.13980235
0.20189406 0.05964211 -0.01195783 0.12654573 0.006142387 -0.074413255 0.0038889125 0.15605725
-0.08101393 -0.08231907 0.07013938 -0.010442784 -0.0024637426 0.065557934 -0.052350264 0.1669875
0.032068767 0.13355277 0.21736594 -0.06821698 0.04043173 -0.0020796184 -0.004902783 0.03843151
-0.06643801 -0.06766299 0.0777058 0.042306278 0.17907295 0.14181854 -0.015981184 -0.0627323
0.026440335 -0.09661442 -0.018242052 -0.1478257 -0.028630132 0.09211096 0.024884174 0.04230157
0.18976027 0.035921246 0.038640518 0.1525464 0.12242492 0.009360557 -0.0048119193 0.04955139
0.011716501 0.0599178 -0.053809047 -0.025423875 0.11743294 0.016894642 -0.054370742 0.05536184
0.06970168 -0.00017977366 0.063059986 0.058940392 -0.06148325 0.07637998 0.010072883 0.14705262
0.08701561 -0.0047606104 -0.081690274 -0.028951436 -0.03935884 0.092920646 0.048028104 -0.1033268

fc2.weight f4 [64, 128]
00000000: 53d3 1dbe 6dee d8bb 18d3 f0bc 9437 3cbe
00000010: 6e86 94bd 10b9 83bb c4d0 1d3c 47f2 99bd
00000020: b362 3bbd 4442 3bbd ef56 9cbd b67c c33c
00000030: 4a3a 793d 1ce9 923d 8092 8dbb 919c 8fbe
00000040: 315a 603d 6434 ec3d 41e8 cbbc d8c3 b53c
00000050: b04d 603d e694 023e 4773 cfbd 9212 74be
00000060: 782d 843d 5e55 c9bd 1b34 b23d 61c1 0fbe
00000070: 6be7 553e 0d0a 803d b3ed 0a3d 70c3 a4bd
00000080: 90ef ecbd 587a 553c 25e1 f2bd d23d c0bd
00000090: 44c3 933e 54b2 eebd 2c05 a7bd 38f3 863e
000000a0: 00aa a3bc d0ec 53bc 4cb4 dcbd cd9f 08bd
000000b0: cae1 65bd cf54 063e f561 52bd 709a fa3d
000000c0: 4f89 48bd 1799 14be 901b 5a3c ecce 9fbd
000000d0: d42c 88be 5d84 72be 7616 15bd 10ff cc3d
000000e0: 87b2 17be 7324 a2be f7c7 2dbe 29f3 c63d
000000f0: b923 a43d 95b9 a1bd 3c39 cabc 2440 cbbc
00000100: e751 a63d 6bad b8bc e79d 3fbe c01b a6bb
00000110: 6f68 a13d aaab 63bd 3e7d 413d 17e7 213e
00000120: 0f01 d7bc 53c9 813e 8092 063e 9230 4abd
00000130: f28f 5dbe 9d1a 9bbd f1e4 e43d 3b89 38be
00000140: 804b 43ba c59a 0e3d d106 4bbd 2338 48bd
00000150: 10ea 623e 963b a7be 4dcd 60bc 4f30 a83d
00000160: e833 c53c ed7d aa3d 1316 49be 8cf1 3e3d
00000170: 4a30 a7bd 38fe acbd eb2c 62be f94d 1a3d
00000180: 8916 103e ac0f 40be 7063 d13b e9f7 c5bd
00000190: 05be 45be 8fbc 75bc d579 4c3d 404b b93d
000001a0: c1a2 c1bd ad7b c3be 6cdc d6bb 2e3b 2d3d
000001b0: 383c c83c 9611 4e3d 375b 98bb 1f41 edbd
000001c0: b83f e93d ecfa fbbc e284 67be fe6e c93c
000001d0: db39 5ebd 4401 713d b392 b4bd 1b90 2cbe
000001e0: 721d 20be 0caf 33be d4aa be3c baff 94bc
000001f0: 9740 7bbe f1c3 17be fb80 0ebe 0797 06be
00000200: 4ba4 3cbe 6881 d8bd 8083 b43c e632 b03d
00000210: 803c 5bbd 74e9 613d 7902 353e ad01 0fbe
00000220: 28f6 bb3c 607c 26be 4a35 96bd 3fd2 9bbd
00000230: 16af d9bd 6ffd a7be aa26 b13b ee0f 803d
00000240: 01c4 bd3d 430f 31be 8163 b23d b017 8a3b
00000250: 9aba ccbd dc9e 303e 0564 643d 2131 fbbd
00000260: b372 073e 6d65 873d 746e 9abc c7b3 563e
00000270: aaff 1d3d 9275 2fbe 30a8 29be 572f 59be
00000280: b6e3 01be d154 afbd 90fc 4f3a c2ec 28bd
00000290: 8de2 1cbe 2c89 643e 7222 33be c5af 433e
000002a0: 2368 783c 4a98 1c3e 4c79 29bb 5479 2abb
000002b0: ef82 233e 3102 5c3e 124e a2be 6a6d 8dbe
000002c0: c681 e03d 127e 293e df76 973d ca67 4abe
000002d0: 952f 6a3e 3c5a fdbb d6c1 d23b a5f1 283e
000002e0: bdeb 303b 847d 9c3d 6e1b 303d 838c a8be
000002f0: 16f9 a9bd 9db3 db3b 49c4 abbd 1c92 e73d
00000300: 5a88 993d e0bc e83a e9df 16be 7271 393d
00000310: ceb8 aebe c570 eebc 80e4 be3d c0b6 913d
00000320: cdaa 09bd 70a5 bfbe de9b 963c 3830 333b
00000330: c12a 8ebe 00e7 43be fbd3 0f3e 7680 aebe
00000340: a0f7 53bd 0cb1 4b3e 437d c73d 03d7 8c3e
00000350: f8ca 5ebe cf35 1e3e 8e14 423e f19e b4bc
00000360: 2791 4e3d 7123 693d 9d19 363e 3318 5d3d
00000370: d9e6 523a 88c7 f83d f0b9 6ebd 9d27 1f3e
00000380: c7cc 02be c29a 783e 8838 29bd 0dbf f53d
00000390: 41ec f73d 15bf b3bd 54a3 873d d303 903d
000003a0: 4099 8b3e 9610 233e 5f37 af3d e139 a7bd
000003b0: 64ee 073c 013a c9bd f92f 18bb 2b60 b03d
000003c0: 7a2e e23d 0925 8ebd 9e8a 9c3e 1b87 f9bd
000003d0: c877 bfbc 8a32 1abe fa4c 7d3d ef5d b33d
000003e0: c90a 76bc 2624 4d3d 29b8 e0bc 08d4 a4bd
000003f0: bf1b b9bc 2bc6 98bd 900d aabd a313 0bbe
-0.15412645 -0.0066202194 -0.029397532 -0.18380576 -0.07252203 -0.004019864 0.009632293 -0.07516914
-0.045748424 -0.045717493 -0.07633769 0.023863178 0.060846604 0.07173368 -0.0043204427 -0.28049138
0.054773513 0.1153343 -0.02489102 0.022188112 0.05476159 0.12752113 -0.10129409 -0.23835209
0.06453985 -0.098307356 0.087013446 -0.14038612 0.2088906 0.06251917 0.033918094 -0.08045089
-0.115691304 0.013029657 -0.11859349 -0.09386791 0.28859913 -0.11655107 -0.08155283 0.26357436
-0.019978523 -0.0129348785 -0.107765764 -0.033355523 -0.056123532 0.1311829 -0.05136295 0.12236488
-0.048959073 -0.14511524 0.0133122355 -0.07803139 -0.265967 -0.23683305 -0.036398374 0.10009587
-0.14814197 -0.31668434 -0.16970812 0.09714348 0.08014626 -0.07896725 -0.024685495 -0.024810858
0.081210904 -0.02254363 -0.18712579 -0.005069226 0.07881247 -0.055583633 0.04723858 0.1581081
-0.026245622 0.2534891 0.13141823 -0.049362727 -0.21636942 -0.075734355 0.111764796 -0.180211
-0.000744991 0.03481557 -0.049567048 -0.04888166 0.221596 -0.32662648 -0.0137208225 0.08212339
0.024072602 0.083248 -0.19637327 0.046617076 -0.08163507 -0.08446926 -0.22087447 0.037672017
0.14071096 -0.18755978 0.0063900277 -0.09666426 -0.19310768 -0.014998569 0.049920876 0.09047556
-0.09454871 -0.38180295 -0.006557038 0.042292766 0.024442777 0.05030974 -0.0046495455 -0.115846865
0.113891065 -0.030759297 -0.22609285 0.024589058 -0.054254394 0.058839098 -0.08817043 -0.16851847
-0.15636232 -0.17547244 0.023274817 -0.018188346 -0.24536358 -0.1482084 -0.1391639 -0.1314355
-0.18422048 -0.10571557 0.02203536 0.08603458 -0.053524494 0.05515428 0.17676724 -0.13965483
0.022944525 -0.16258383 -0.07334383 -0.07608461 -0.10629098 -0.32810542 0.0054062204 0.06253038
0.092659004 -0.17290978 0.08710385 0.0042142496 -0.09996529 0.172481 0.05575945 -0.1226523
0.13227348 0.06611142 -0.018851496 0.20967017 0.0385739 -0.17134693 -0.16568065 -0.21209465
-0.12684521 -0.08561099 0.0007934058 -0.041241415 -0.15320797 0.22317952 -0.17493609 0.1911002
0.015161547 0.15292469 -0.0025859652 -0.0026012259 0.15967916 0.21485211 -0.31700188 -0.2762254
0.10962252 0.16551998 0.0739572 -0.19766155 0.22869714 -0.007731704 0.0064317985 0.1649843
0.002699598 0.07641128 0.04299491 -0.32919702 -0.082994625 0.006704761 -0.08387048 0.11307165
0.0749671 0.0017756484 -0.14733852 0.045274206 -0.3412537 -0.029106507 0.09320927 0.07114935
-0.033610154 -0.37430906 0.01838487 0.0027341973 -0.27766994 -0.19131088 0.14045708 -0.34082383
-0.051749825 0.19891757 0.09740689 0.2750779 -0.21757114 0.15450214 0.18953153 -0.022048445
0.050431397 0.056918565 0.17783208 0.053978156 0.0008045263 0.121474326 -0.058282793 0.15542455
-0.12773429 0.24277785 -0.041313678 0.11999331 0.12105609 -0.087766804 0.06622949 0.070319794
0.27265358 0.15924296 0.08555483 -0.081653364 0.008296583 -0.098255165 -0.0023221953 0.086120926
0.11044021 -0.06940658 0.30574507 -0.121839724 -0.023372546 -0.15058342 0.06184099 0.08758151
-0.01501722 0.050083302 -0.027431564 -0.08048254 -0.022596238 -0.074596725 -0.08303368 -0.1358171

fc2.bias f4 [64]
00000000: e8be 4c3d 7eec 103d 8e21 473e 8df3 3a3e
00000010: 5c32 ce3d 1c3c 323d 356f 5cbd de20 b0bd
00000020: 783f dc3d e47c f33b 52c5 d53a 8917 063e
00000030: 0809 71bb 16c1 a93d b555 a13d cb4b 2a3e
00000040: 3ab3 1a3d 4463 833b 5112 7f3d 89ff cb3d
00000050: d940 bf3a b001 dbbc d36f 2fbe b918 8bbd
00000060: 5589 e43b dc6a a23c 6861 73bd 1ce9 69bd
00000070: 5040 1b3d 0114 843e db70 2ebe 876f 523e
00000080: a52f 053e 7859 8cbc 5b74 073d 4bf4 03be
00000090: de17 d9bc cc11 143d 7e70 ca3c e87e 703b
000000a0: 3a3b 3e3d 0f30 8a3e 18a4 dc3d 8432 653d
000000b0: ea2b 33bd 08af a93d 8eb1 ab3d 4023 ea3d
000000c0: d2e9 2d3b 2e71 c23b 6fa9 f23d 6f54 ccbc
000000d0: bfe8 00be c9a7 6ebd 56e3 853c 451b 9bbc
000000e0: 6c1d 0bbe 9a4b 0b3e 0269 5a3c 5b15 45bd
000000f0: 9412 643d 6823 983d 319b 9ebc 0a6e 783d
0.04998675 0.035381787 0.19446394 0.1825697 0.10068199 0.043514356 -0.053816993 -0.08600019
0.10754293 0.0074306596 0.0016309416 0.13094915 -0.0036779065 0.08288781 0.078776754 0.16630475
0.03776858 0.004009636 0.062273327 0.09960849 0.001459147 -0.026734203 -0.17132501 -0.06791825
0.006974379 0.019826345 -0.059419066 -0.057107076 0.03790313 0.25796512 -0.17035238 0.20550357
0.13006456 -0.017132506 0.03306995 -0.12886159 -0.026500639 0.036149785 0.024711844 0.0036696736
0.0464432 0.2698979 0.10773486 0.05595638 -0.04374305 0.08285338 0.08383475 0.11432505
0.0026537073 0.005933902 0.11848723 -0.024942605 -0.12588786 -0.05826548 0.016343754 -0.018933902
-0.13585442 0.13603058 0.0133307 -0.04811607 0.05568178 0.07428628 -0.01936111 0.060651816

fc3.weight f4 [10, 64]
00000000: 8b2e d6bd d88d 3c3e 0466 53be e1d5 42bd
00000010: fbe2 53bd 290d bbbc e79f 263e bb87 17bd
00000020: 4559 133e aa07 983c eea9 93be 1558 e0bc
00000030: fafc 46bb cd6c 2b3d 1a44 603d 37d5 ba3d
00000040: 6965 3b3e ccf4 c73d f759 1d3e c2b6 053e
00000050: 7bd8 b43d c35b d23d 9955 7fbe a9a1 bbbc
00000060: fbe2 ef3d afef 64be a499 01be dab9 d2bc
00000070: 6bee fb3c 6d01 4cbe f23b 18bf e9ba c0bc
00000080: 4bd5 593d 6a01 0abd 7cf6 2a3d 41b4 043e
00000090: 41ec 753d f370 513e d5ff f13d b782 c5bd
000000a0: 9ea4 a1bb 6fee 8fbe 4062 2bbe ec98 9abe
000000b0: 716e ecbd 069f 56bd 2774 0dbe 1a26 00be
000000c0: bcc0 4e3d 3774 033e 3bba babe 73d3 b9bd
000000d0: d11b 593e 322a a5bd 714f 62be bd8d fdbb
000000e0: 2426 113e d290 5fbe 3768 07bd c3f4 94bd
000000f0: 2000 e93d 5c36 6bbe c2ca 87bd 9f1e de3d
00000100: 5bd4 c3be 9be7 d4be 85c8 71be 8259 24be
00000110: ecac d43d c73d 2ebe 2737 543e a2af d1bb
00000120: 1a15 5f3e 9f28 413e b9a3 403d 61f9 d2bd
00000130: d349 f7be 78ce f83d 1d95 b23d bb68 babe
00000140: e0a1 6ebe 5a36 93bc 2d2f c3be 377a 623d
00000150: 0248 c4be bc82 263d ee87 b63e c857 c53d
00000160: 7d3e 1d3e f215 393e b652 14bd a0b9 3cbd
00000170: a91b 643d 8346 c5be 3a9e fabd ee9b 9dbd
00000180: 9904 eebe e4cb d93d a218 b3bd f53e 31ba
00000190: f088 e2bd d874 88be 5c1e 61be d5f0 5d3e
000001a0: d868 d7bd 785a cdbe 6a49 25bf a441 783e
000001b0: b72d 003e 80cd 313e 3b13 4abe a842 3b3e
000001c0: 7e3f 2ebc 1b9a af3c a452 8e3c 5e85 2d3e
000001d0: 405b 2dbe 2877 ac3d ec50 8d3d acda cc3c
000001e0: fadb 043e b25a aebe 8138 21be 9e84 a8bd
000001f0: 03c7 99be 8ecf 84be b0e5 05bd 945b 663d
00000200: f2f3 3cbe 7138 9a3e 2761 c33a 5524 993d
00000210: f6be 5dbd f33e 55bc f774 abbe db59 d33d
00000220: aa4b 8dbd ddc3 2ebe da65 bdbe d199 a63c
00000230: 49d0 913d 6666 48be 00fb d5be d789 c53d
00000240: b000 b13d 5778 dc3d ac2f 353c 9ae4 2a3e
00000250: 8368 f4bd 21b1 b63d 83e7 113e 4840 dfbe
00000260: 739d 68be 43b3 6b3d 63b8 a53d c0fd 9bbe
00000270: e01f a03d e51e b7bc e479 95bd 738a 433c
00000280: 21e0 b3bd 9c55 0c3d 5d12 c6be fb4f 9cbe
00000290: da9c d7ba 3736 03bf 0ef4 4e3e 24b5 01be
000002a0: fba7 05bf d68b 2c3e 3eeb a8bd f9c4 6abc
000002b0: dc80 ca3b 79d6 c53d d1e9 193e 1e29 39be
000002c0: 5a26 863c 31a4 f33c a6de 363e edf1 823d
000002d0: 7645 d53d 7c33 1dbe 5933 54bd a7c9 14be
000002e0: da0b ad3d 4b57 b13d 82d2 5abe a012 f73c
000002f0: 3586 5bbd 6a30 ffbe 2626 dcbc 8dd2 303d
00000300: c5a1 81be ba2e d33d 67e4 b53d be07 9ebe
00000310: a7f7 bc3d a5be 903e 52b1 d33d ee83 d13d
00000320: 86c7 7abc 7e98 9f3d 8906 6cbd a772 6ebe
00000330: b07a 923d 32a1 94bb 4623 4ebd 43b1 8dbc
00000340: b402 fabd 2c50 093e e1a4 66be 1358 853d
00000350: e14d ce3d b075 333e f620 85be 3a4c 003e
00000360: 306d d9bd dddb fc3d fc5e f63d a706 a5be
00000370: 0c74 4b3d 9647 38bd 5d22 80be 06cd 443e
00000380: 9e41 ccbe 30d1 d9bc 1a01 733d 18a5 b5be
00000390: 8ede 34be 0fb2 3ebe 49ee 2dbd 162a be3c
000003a0: 2240 243e 3260 643d d164 9ebe 0e87 84be
000003b0: 282d 893b 62db de3c de94 e7be f2ed 2ebe
000003c0: 240b 48be 26ac d83c 12e6 d0be 45ac b2bc
000003d0: b5a8 c0be 5e9f b1bd 545f 273e 365a 88be
000003e0: 75cb 1fbe ca82 dc3c 19a5 fa3c f040 d9bd
000003f0: f7bf ddbc b99e 503d eabf adbd 7abe d83d
-0.10458096 0.18413484 -0.20644385 -0.047567252 -0.051730137 -0.022833424 0.16271935 -0.036994677
0.14389522 0.018558342 -0.28840584 -0.02738575 -0.0030363188 0.041851807 0.054752447 0.09122699
0.18300404 0.09763488 0.1536635 0.13057998 0.08830353 0.102714084 -0.24934997 -0.022904234
0.11713215 -0.22357057 -0.12656265 -0.025723387 0.030753335 -0.19922419 -0.5946647 -0.023526626
0.053181928 -0.033692755 0.041738972 0.12959386 0.060039762 0.20453243 0.11816374 -0.096440725
-0.004932954 -0.28111598 -0.16736698 -0.30194795 -0.115445025 -0.05239775 -0.1381384 -0.12514535
0.050476775 0.12837301 -0.36470208 -0.09073534 0.21202017 -0.08064689 -0.22100617 -0.007737844
0.14174706 -0.21832588 -0.03305837 -0.07273247 0.11376977 -0.22969955 -0.0663047 0.10845684
-0.38247952 -0.4158295 -0.23611648 -0.1604977 0.10384545 -0.17015754 0.20724164 -0.006399111
0.21785393 0.18863152 0.047031138 -0.103014715 -0.4829851 0.12148756 0.08719847 -0.36408028
-0.23303938 -0.017970253 -0.3812193 0.055292334 -0.38336188 0.04065202 0.3565058 0.096358836
0.15355869 0.18074778 -0.03621169 -0.046075463 0.05569044 -0.3853036 -0.122372106 -0.07695757
-0.46487883 0.10634592 -0.08744933 -0.00067613955 -0.11061275 -0.26651645 -0.21984237 0.21673901
-0.10518044 -0.40108085 -0.64565146 0.2424379 0.12517439 0.17363548 -0.19733898 0.18287146
-0.010635255 0.021435788 0.01737339 0.16945407 -0.1692934 0.08421165 0.069002 0.025006615
0.1297454 -0.3405357 -0.15744211 -0.0822842 -0.30034646 -0.25939602 -0.03268975 0.05623968
-0.18452433 0.30121186 0.0014906273 0.07477633 -0.054137193 -0.013015497 -0.33487675 0.10319873
-0.068991974 -0.17066903 -0.3699177 0.020337017 0.07119805 -0.19570312 -0.4179306 0.096454315
0.08642709 0.107651405 0.011058729 0.16688767 -0.119339965 0.089205034 0.14248471 -0.4360373
-0.22716312 0.057544004 0.080918096 -0.30467033 0.0781858 -0.022353599 -0.072986394 0.011934864
-0.087829836 0.03426133 -0.38685885 -0.3052977 -0.0016449944 -0.512546 0.20210287 -0.12666756
-0.5220944 0.16850218 -0.08247994 -0.0143291885 0.006179912 0.09660048 0.150306 -0.18082091
0.01637571 0.029741379 0.17858371 0.063938 0.10413639 -0.15351671 -0.05180678 -0.1453005
0.08449526 0.08659228 -0.21369365 0.030160248 -0.053594787 -0.49841624 -0.02687366 0.043169547
-0.25318733 0.10311647 0.08881455 -0.30865282 0.092269234 0.2827045 0.103365555 0.10230242
-0.015306359 0.077927575 -0.05762342 -0.23285924 0.07152307 -0.0045358175 -0.050326608 -0.017296439
-0.12207547 0.1340949 -0.22523834 0.065109394 0.10073448 0.17525363 -0.2600171 0.12529078
-0.10616529 0.12346623 0.120298356 -0.32231638 0.049671218 -0.044990145 -0.25026217 0.19218835
-0.39893812 -0.026589006 0.059327222 -0.3547752 -0.17663023 -0.18622611 -0.042463575 0.023213428
0.1604009 0.0557558 -0.30936292 -0.2588429 0.0041862912 0.02720422 -0.45230764 -0.17082956
-0.195355 0.026449274 -0.4080053 -0.02181066 -0.37628713 -0.08672975 0.16344959 -0.26631325
-0.15604956 0.026917834 0.030596303 -0.10608089 -0.027069075 0.05093262 -0.0848387 0.105832055

fc3.bias f4 [10]
00000000: 4a33 e4bd 8b43 3fbe 8594 8f3d 4e93 943c
00000010: 30d0 abbc e1a8 01be f753 353d 99df e93d
00000020: e7b6 fa3d fd32 903d
-0.11142595 -0.1867811 0.0701075 0.018136647 -0.020973295 -0.12662078 0.04426953 0.11419601
0.12241917 0.07040975

exp_avg f4 [6, 1, 5, 5]
00000000: dc85 ea3b 8d9b 853a 7c6a a93b c8fe 703b
00000010: 74cb e43b d714 f73a 4cc6 96bb 3687 bebb
00000020: da9a 54bc a24e e8bb 1eb3 a1bb c97c 3ebc
00000030: bfc3 1ebc 8c1e 44bc 99e5 53bc 4d11 10bc
00000040: c22e 0fbc 673a 4dbc cd93 44bc 9f9a 3fbc
00000050: a3d2 07bc ffc9 34ba 64d6 25bc caff a7bb
00000060: ec8d 14bc 4a07 abbb 00a1 323a 6ff5 e1bb
00000070: ae1a 6ebb 23f4 233a 9339 b0bb 083e 97ba
00000080: 2df5 3abc d48e 6ebb 6d08 4e3a 5312 983a
00000090: 59c7 333b ac5d faba 475d 703b 5cd1 103c
000000a0: 9596 b039 b74e 083b dc21 b5bb bfbc aab9
000000b0: 1026 203b afb4 c83a b160 473b 41a2 78bb
000000c0: 520c 243b 691a 263b 0c44 163c 4820 8a3b
000000d0: 0fc8 c43b eebd 953b ae50 d23b 57a3 0c3b
000000e0: 8144 7c3a 3db7 7f3b 3bdd 3c3b 05e8 f23b
000000f0: 718c 1f3b e9cd 743b cfee ab3b 51f3 8b39
00000100: 8393 0f3c 9c58 143a 0ffa 813a b5bf 323c
00000110: b971 0e3b d5a1 e73b 0b89 873b 17c4 a43b
00000120: 2783 193c d004 a43b 960c 743b 7a3e 283b
00000130: ae30 053c 820d 153b b8f4 453b 3d5a 903b
00000140: ed2c 6d3b 8a2b f63b f6dd c63a fd55 873b
00000150: 080f 8439 a40f fd3b 4962 5a3c 03d2 993b
00000160: 7749 9d3b 42af 0fbb 09ab 3f3c 6a79 8f3c
00000170: 7548 ec3b d4cb 893b 778c ca3a 006b 793c
00000180: 5087 973c b1b0 1d3c 8a84 8d3b bfc8 ddba
00000190: f962 d13c 87ad d13c 248d de3c a33f c73c
000001a0: 7466 933c 9b69 173d cb53 203d e8fa 083d
000001b0: bf13 dd3c 3f12 863c c4aa 203d fc49 4b3d
000001c0: 3179 113d 0a2b 0a3d 5328 f43c 9b3a 193d
000001d0: d806 0c3d 565d c33c 1dc2 e93c 6d23 fd3c
000001e0: b616 053d 2eb2 de3c cf0e c23c 9e92 0c3d
000001f0: ea5e f93c 3641 9c3b 81d1 023c a3e2 413c
00000200: 8866 6e3c 92c9 903c 055b 8e3c 00f0 9e3c
00000210: 303b 933c 98b4 a83c c591 a83c 2470 883c
00000220: 398d b93c bc9b d33c a655 bf3c 9d4b 8a3c
00000230: 536d 8e3c 7a27 b43c c07a 923c d0f6 b83c
00000240: 2ab4 3a3c 63e3 e13c 5410 253d 9c34 243d
00000250: d2e6 2a3d a2ba ed3c
0.0071570706 0.0010193452 0.0051701646 0.0036772955 0.0069822613 0.0018850815 -0.0046012755 -0.0058144582
-0.012976373 -0.007089452 -0.0049346825 -0.011626431 -0.009690224 -0.011970174 -0.012933158 -0.008793187
-0.008739175 -0.012526131 -0.011998129 -0.011694579 -0.008289966 -0.0006896555 -0.0101219155 -0.005126928
-0.00906704 -0.005219375 0.0006814152 -0.006895713 -0.003633182 0.0006254336 -0.005377957 -0.0011538872
-0.0114109935 -0.003640105 0.0007859532 0.0011602141 0.0027432053 -0.0019101403 0.0036676691 0.008838978
0.00033681528 0.002079887 -0.005527718 -0.00032565554 0.002443675 0.0015312637 0.0030422623 -0.0037938508
0.0025031758 0.0025345332 0.009171497 0.004215274 0.006005294 0.0045697605 0.006418309 0.0021459663
0.0009623245 0.003901913 0.0028818387 0.007412913 0.0024345184 0.0037354177 0.005246974 0.0002669343
0.008763197 0.0005658956 0.0009916442 0.010909964 0.0021735264 0.0070688524 0.00413621 0.0050282585
0.009369648 0.0050054565 0.0037238947 0.0025672005 0.008129282 0.0022743647 0.0030205678 0.0044052885
0.0036190108 0.0075125145 0.0015172351 0.0041301236 0.000251882 0.007722812 0.013329097 0.004694225
0.0048000175 -0.002192453 0.011698493 0.01751395 0.007210786 0.0042052064 0.0015453239 0.015223265
0.01849714 0.009624646 0.0043187784 -0.0016920789 0.02555989 0.02559544 0.02716691 0.024322337
0.01799319 0.036965948 0.03914241 0.033442408 0.026986955 0.016366122 0.039225355 0.049631104
0.035515968 0.03373245 0.029804384 0.037409406 0.034186214 0.023848217 0.028534943 0.030900681
0.032492362 0.027184572 0.023688702 0.034319513 0.030440766 0.004768516 0.00798452 0.01183382
0.014550813 0.017674241 0.017377386 0.01940155 0.017972559 0.020593926 0.02057732 0.016655035
0.022650348 0.025831096 0.02335627 0.016881758 0.017386114 0.02199148 0.017880797 0.022578627
0.0113954935 0.027574247 0.040298775 0.040089235 0.041724034 0.029019658

exp_avg_sq f4 [6, 1, 5, 5]
00000000: aa62 1b3c a3da 103c 72d7 0c3c afc8 0f3c
00000010: 65a7 053c 4827 173c f283 123c ce4c 0e3c
00000020: 6a22 113c 0084 063c 3abd 133c b80f 0f3c
00000030: 9d1e 0f3c 0d1a 0f3c f284 063c fe97 103c
00000040: 473b 023c 9b24 053c f387 0a3c b9af 073c
00000050: 69da 0a3c 936e fa3b 23fa 003c 7025 083c
00000060: b471 043c 01e8 d13a 7ee2 cb3a 4286 c33a
00000070: b061 c13a ffab c43a 3796 d73a ab84 cd3a
00000080: 315e cb3a 7b45 c53a 013d cd3a b98a e23a
00000090: 791a d03a a4fe d83a c0e1 dc3a ead5 d93a
000000a0: aa35 f53a a0cf e83a f536 e73a 0c42 fe3a
000000b0: 5938 f33a 909f f83a abf5 f83a 4598 f13a
000000c0: 4c6a 043b bb54 fe3a 89ca a43a 37c6 a33a
000000d0: 9d17 bd3a 5d34 c53a 4d43 fd3a b066 9a3a
000000e0: e991 a03a 9d84 ab3a f9c3 a03a ecf2 c93a
000000f0: 38f4 863a fb0d 893a fdfa a53a 8fcb 983a
00000100: f4ce b63a f73a 863a ed40 823a 77ae 9f3a
00000110: b5ab 913a c9d6 a13a 51a8 923a 9532 8d3a
00000120: 1cb8 a23a 1469 943a ff86 973a f0fc d33a
00000130: 5d6d da3a 3ef4 d03a 6e9b b03a 5352 bc3a
00000140: 8a70 bf3a fd44 b93a 0c2e b63a d2f9 a43a
00000150: e803 af3a c0a2 a13a 74c1 a83a 1702 b13a
00000160: 7ab3 a83a 12e7 ad3a f579 a53a c75c a83a
00000170: 53ac ad3a ff65 a33a d839 ab3a ef2a b23a
00000180: d40b aa3a 0fc4 ae3a 2567 b13a 3f1a ae3a
00000190: c4c2 5a3c 4fd3 2e3c f459 173c 6f42 143c
000001a0: 4ef3 183c 6c70 4d3c e378 2c3c 16ac 1e3c
000001b0: 6dc3 1c3c f4a1 1d3c f572 483c 8b5b 2f3c
000001c0: 4f8f 213c 4317 273c 9e1a 3d3c c106 3e3c
000001d0: 3238 2d3c 6fbc 213c 7fe7 213c 536f 3b3c
000001e0: 5d09 313c 2f94 273c 6caa 1a3c 5877 1a3c
000001f0: 4787 303c 5d9c ac3c 4de7 a83c f892 b33c
00000200: caac ae3c a321 ba3c 630c a53c 46c4 aa3c
00000210: 428f b13c fb53 ab3c 8f8d aa3c 1756 ac3c
00000220: 64df ac3c 12ec ad3c ee07 a73c bc92 a43c
00000230: 3414 a53c ca0e ab3c 08f6 a93c eb4a a53c
00000240: a866 a83c 5504 933c ec6e 963c 1fdd 963c
00000250: d5bf 963c eefe 8c3c
0.009483973 0.00884119 0.008596288 0.008775874 0.008157586 0.009225674 0.008942591 0.008685304
0.008858303 0.008210182 0.009017283 0.008731775 0.008735326 0.008734238 0.008210408 0.0088253
0.007948703 0.008126403 0.008455264 0.008281642 0.008474925 0.007642576 0.007872137 0.008309707
0.00808375 0.0016014577 0.0015555171 0.0014917331 0.0014753845 0.0015004872 0.0016447966 0.0015679797
0.0015515742 0.0015050614 0.0015658439 0.0017283774 0.001587703 0.0016555381 0.0016851947 0.0016619537
0.001870801 0.0017762072 0.001764028 0.0019398346 0.0018556222 0.0018968452 0.0018994113 0.0018432221
0.002020496 0.0019403914 0.0012572567 0.0012494986 0.0014426593 0.0015045513 0.0019322425 0.0011779871
0.0012250516 0.0013085786 0.0012265436 0.0015407479 0.0010296172 0.0010456437 0.0012663301 0.0011657345
0.0013947175 0.0010240962 0.0009937562 0.0012182732 0.0011113795 0.0012347336 0.0011189078 0.0010772521
0.0012414488 0.001132282 0.0011560618 0.0016173404 0.0016664673 0.001594193 0.0013474056 0.0014367796
0.0014605683 0.001413494 0.0013899221 0.0012586659 0.0013352605 0.0012331828 0.0012875036 0.0013504651
0.0012870871 0.0013267717 0.0012624847 0.0012845033 0.0013250209 0.001246631 0.0013063503 0.0013593117
0.0012973496 0.0013333576 0.0013534768 0.0013282968 0.0133521 0.010670497 0.009237755 0.009049042
0.009335352 0.0125390105 0.0105268685 0.009684583 0.0095680775 0.009621132 0.012234439 0.010702978
0.009860828 0.010198417 0.011541991 0.01159829 0.01057248 0.009871586 0.009881853 0.011440116
0.010805455 0.010228201 0.009440046 0.009427868 0.01077444 0.021070654 0.020618105 0.021920666
0.021322627 0.022721117 0.020147508 0.020845544 0.021674756 0.020914068 0.020819454 0.021037145
0.021102615 0.021230731 0.020389523 0.0200895 0.020151235 0.020881075 0.0207472 0.020177325
0.020556763 0.017946402 0.018363439 0.018415986 0.01840202 0.017211404

exp_avg f4 [6]
00000000: 1c14 afbc 0a3c 933b deb8 543c b522 06bb
00000010: 6eb5 9f3c 26d5 9bbb
-0.021371894 0.004493241 0.012983529 -0.0020467464 0.019495692 -0.004755634

exp_avg_sq f4 [6]
00000000: 63a4 c73c 9b56 993b aab7 843b 5a81 d83a
00000010: 705d 103d 36fd 873d
0.024370378 0.0046795136 0.004050215 0.0016518042 0.03524536 0.06640093

exp_avg f4 [16, 6, 5, 5]
00000000: 8d39 91bb 9e21 b3b9 a3d6 f73a 79ac 0dba
00000010: fd87 edbb 17c7 4bbb 02d0 ddb8 4d04 8db7
00000020: 4b1e 50bb 5041 08bc 981e 67bb 1ed8 3cb9
00000030: 36c3 1bbb 5540 81bb 5f94 c8bb ee98 8abb
00000040: f282 70ba ebc9 93bb 7e9b 09bb f611 cebb
00000050: ed1c 02bb 7456 ea3a 34e3 fdb9 85fd ddba
00000060: ef23 99bb 1a2d 86b8 8a92 8cba ad4e 143b
00000070: 6200 ab3b 7268 353b 915e 14b9 022a 60ba
00000080: 85a2 823a 6c6d 043b 8ae8 7a3a d63f afba
00000090: 0acc 99ba 3176 3937 92ff 143a baa6 19bb
000000a0: 2fbd 99ba 11f9 87b9 2c0f 8a3a f334 9d3a
000000b0: a5a1 fbb9 8ad4 5539 2d48 b739 7618 313b
000000c0: c854 1e3b adfd 3e3b 8012 1e3b dd6f c43a
000000d0: e645 9bba e9b1 28ba 4267 df39 05d0 0e3b
000000e0: fe21 003b 5f8c d039 ff35 23ba 9b18 71b8
000000f0: c31c e53a 9255 2c3b 4afc 9a3a 209c 27ba
00000100: f895 05bb c5d5 953a 10c5 423b 5523 b43a
00000110: 1b93 97ba ff2e 25bb 5323 cb39 5577 a83a
00000120: b594 8339 d5e2 05bb 1b97 a4bb fff4 9eba
00000130: e7a1 32b9 879d 693b 6335 ba3b 2d34 e43b
00000140: 46de 05bb 0374 2339 6f6e ab3b 4d19 253c
00000150: d4b5 243c b561 1ebb 4965 9bb8 40aa b73b
00000160: c8b4 193c 11dd 1b3c 6f07 02bb 4516 573a
00000170: 14ec e63b 763c 293c 411e 0e3c fea7 68bb
00000180: 4af2 e23a d687 df3b 92b1 2c3c a511 183c
00000190: d3f1 d53a 7cb1 1a3b eaf8 083b ab3d ddba
000001a0: 6669 363a 26f4 85b9 8410 223b db38 c63b
000001b0: 580b 9eba 1b45 5dbb 42d2 32ba f073 5a3b
000001c0: 18d2 e43b f41e 963a d0aa 9cbb cfbc 12ba
000001d0: 65d8 913b b96c b93b 8947 5bba 602c 04bc
000001e0: 9ac1 e6b8 1ddc c23b c9b1 b43b 60c2 633a
000001f0: 7cfb 28bc 9ca1 f0bb b328 3dbb 51d6 88ba
00000200: 60b0 fd38 3a3d 47bb 31c0 98bb 02db aa39
00000210: 5dda 41bb c32e 6fba 6570 49bb 1cf8 5abb
00000220: 2d29 653b c4d0 50bb ecf8 01bb f647 82bb
00000230: c4fb f9b8 1abf da3b e162 98bb 6a04 f9b9
00000240: 68a1 a4bb dcdd e7b9 1f5f eb3b f224 93bb
00000250: 55a5 97ba bb8d ddbb 66aa 1f3c f375 c738
00000260: 7280 bfba 3ed4 833a 9550 bf3b c74e 003c
00000270: d45d db3a 871b cd3a 8820 5c3b 6d63 883b
00000280: 004d fd3b 5c5a 5a3b f731 893a c9a0 8e3a
00000290: 5600 483b 7261 aa3b 7e83 8b3b 3596 c83b
000002a0: 0887 613b 8849 813b 4b99 c63b edbc d83b
000002b0: 43ff de3a 2956 d03a 8b67 873b 7cf4 f8b9
000002c0: 4d24 af39 8e46 07bb f5bd a5b9 224d 1eb8
000002d0: 8d71 613a b395 bcb9 8c9e 5cba fa0b ec3a
000002e0: af86 a73a 6693 483a f1d7 7d39 955e fdb9
000002f0: 90ff 43b8 f818 1eba b3b5 2038 f9ad 11ba
00000300: c2db 13bb a244 6bb9 be27 6f3a 88d8 84ba
00000310: a2f8 54b9 48b1 0339 c219 8fb8 fe44 30bb
00000320: 6583 da3b a534 c93b d9c6 a73b 79b3 3a39
00000330: a1e4 023b e235 ea3b 0711 b83b 8fe1 a53b
00000340: a8be 713b 947e b23a 3407 803b c2a8 cb3b
00000350: 58fc dc3b bca8 a83b 27a3 363b 529d be3b
00000360: 55ed de3b 5b4c cd3b b2bb 9c3b 345e 663b
00000370: fdd8 993b 2c02 e53b ca99 db3b dc2f d63b
00000380: 904b c23b 5065 f4bb 4b48 3d39 b545 da3a
00000390: 467a d43b a3a7 aaba 085c 9bbb 62fa 61ba
000003a0: 7077 2c3a bb6d b03a 7462 41ba 540f 29bb
000003b0: f07c c6ba c9b8 933a a2ed 473b c155 4a3b
000003c0: 5228 95ba e2e7 38bb 5e8f cab9 a584 303b
000003d0: 6792 bb3a 4d3c 0abb 0a4b 29bb c642 d3b9
000003e0: 7107 253b 6f58 dbba 6616 f63b ebba cd3b
000003f0: c0d0 093c d905 4c39 ecf9 8ebb aa03 0e3c
-0.0044319094 -0.00034166587 0.0018908571 -0.00054044236 -0.007248877 -0.0031094009 -0.00010576846 -1.6810513e-05
-0.0031756337 -0.008316353 -0.0035266038 -0.00018009587 -0.0023767478 -0.0039444366 -0.006121203 -0.0042296564
-0.0009174786 -0.0045101545 -0.0020997222 -0.006288762 -0.0019853667 0.0017878548 -0.000484252 -0.0016936517
-0.004673473 -6.398019e-05 -0.0010724824 0.0022629902 0.0052185515 0.0027680662 -0.00014149609 -0.00085511815
0.0009966647 0.0020206822 0.0009571394 -0.0013370465 -0.0011733782 1.1054378e-05 0.0005683835 -0.0023445324
-0.0011729355 -0.00025934775 0.0010533086 0.001199393 -0.00047994885 0.0002039244 0.00034958255 0.0027022636
0.002415942 0.0029142902 0.0024119914 0.0014986951 -0.0011846393 -0.0006435202 0.00042610808 0.002179147
0.001955151 0.00039777436 -0.00062260026 -5.7481793e-05 0.0017479885 0.002629612 0.0011824456 -0.0006393809
-0.0020383578 0.0011431506 0.002971951 0.001374344 -0.0011564227 -0.0025205014 0.00038745496 0.0012852947
0.00025097062 -0.0020429392 -0.005022896 -0.0012127458 -0.00017035716 0.0035646872 0.0056826337 0.0069642277
-0.0020426675 0.00015588109 0.0052316706 0.010076833 0.010053117 -0.0024167125 -7.409842e-05 0.005605012
0.0093814805 0.009513156 -0.0019840857 0.00082049175 0.0070471857 0.010329356 0.008674205 -0.0035500522
0.0017314639 0.006821613 0.010540383 0.0092815505 0.001632268 0.0023604324 0.0020900317 -0.001687934
0.00069584546 -0.00025549642 0.0024729082 0.006049258 -0.0012057824 -0.0033763114 -0.0006821492 0.0033333264
0.006983053 0.0011453317 -0.0047811046 -0.00055975927 0.004450845 0.0056587127 -0.00083648466 -0.00806722
-0.00011003316 0.0059466497 0.0055143577 0.0008688327 -0.010313865 -0.007343484 -0.002886337 -0.0010439848
0.000120968325 -0.0030401484 -0.004661583 0.000325881 -0.0029579618 -0.00091240945 -0.0030737158 -0.0033412045
0.003496717 -0.0031862715 -0.0019832207 -0.0039758636 -0.0001192014 0.006675613 -0.004650459 -0.0004749627
-0.005024124 -0.00044225052 0.00718297 -0.004490488 -0.0011569659 -0.0067612804 0.009745216 9.511029e-05
-0.0014610423 0.001005776 0.0058384635 0.007831282 0.0016736337 0.0015648463 0.0033588726 0.004162243
0.0077301264 0.0033318019 0.0010467161 0.0010881658 0.0030517778 0.0051996047 0.0042576184 0.0061214217
0.003441276 0.003945533 0.0060607544 0.0066143186 0.001701333 0.0015894818 0.0041322163 -0.000474844
0.00033405647 -0.002064142 -0.00031612781 -3.774197e-05 0.0008599989 -0.0003596969 -0.00084159593 0.001800894
0.0012781228 0.00076513586 0.00024208405 -0.0004832639 -4.6729634e-05 -0.00060309423 3.8316193e-05 -0.0005557235
-0.0022561406 -0.00022436914 0.00091230485 -0.0010135332 -0.00020310518 0.00012559176 -6.823569e-05 -0.0026896591
0.0066684955 0.006140309 0.00512014 0.00017805201 0.00199727 0.0071475366 0.005617264 0.005062289
0.0036887322 0.0013618045 0.0039071087 0.006215186 0.006743949 0.005147068 0.0027868242 0.005817094
0.0068031945 0.006265206 0.004783117 0.0035151364 0.0046950565 0.0069887843 0.0067016827 0.006536467
0.005929418 -0.0074583665 0.00018051376 0.0016652854 0.0064843027 -0.001301993 -0.0047411956 -0.0008620379
0.0006579077 0.0013460437 -0.00073770364 -0.002579649 -0.0015143435 0.001127028 0.003050663 0.0030873867
-0.0011379814 -0.0028214385 -0.0003863526 0.002693453 0.0014310599 -0.002109307 -0.002583208 -0.00040294806
0.0025181437 -0.0016734729 0.0075099943 0.006278386 0.008411586 0.00019457134 -0.004363289 0.008667866
