pytorch/experiments/base_model/last_model.pth.tar (torch_old, 536637 bytes, 30 tensors)

conv1.weight f4 [6, 1, 5, 5]
00000000: 1516 7d3d 7cc1 80be 0b5a d7be 960b 2a3e
00000010: a152 5dbe 3c65 48be 5d88 6d3e 9972 8fbe
00000020: 2d1f 843e 3435 d0bd 311e 7fbc b483 8c3d
00000030: bb09 a93e 1b5b 273e b4fd a83e b723 3b3e
00000040: aac6 94bd ace8 7f3e 5497 70be f7b3 34bd
00000050: 212e 01bd 3eee 7ebe eb2c d93d fb27 a73d
00000060: 0f32 d7bd 099d 03be 776f b03d 3703 9c3e
00000070: 8229 e93e f449 a53d 1413 df3d 3304 cb3d
00000080: d885 adbc 4108 143e 7561 0fbe 777f 353e
00000090: 9c51 15bc 0163 29be a022 6cbe 70b4 36bd
000000a0: a9f8 09bd ef1d 4abe a486 56be 8e34 84be
000000b0: 6a3f aebd 984e 5abc d443 febc 9cc3 24be
000000c0: 4c27 b8be 348a f3bd e626 c63e 1ff0 5a3e
000000d0: 5017 653e 490b db3d 1b9e 19be 3fdd eb3d
000000e0: 2692 583e 3829 08be 23fb 233d 4263 3ebe
000000f0: 8fdd 1cbe e151 2bbe ae08 d73d ad7b a83d
00000100: 65f3 3cbd 4958 563c 9321 cfbd 5805 033e
00000110: 9176 c73d 45f7 463e 1670 073e 9793 36be
00000120: b8e7 893d aee8 823e ee51 24bd 0428 e2bd
00000130: 498a 033d 3665 8b3d faa0 7bbe 2d2a 08be
00000140: 9e32 efbd 706f 23bd a007 60be 392e 0abf
00000150: 6947 48be dd08 913c 8ae8 0ebe abcd 55be
00000160: d238 f8be 4810 83bd 077e 233e a86f 973d
00000170: 10cf 9abd d1bf 8fbd 13b7 16be adc0 d03d
00000180: 2db5 be3c 52aa 2fbd 7f55 52bd 2b54 35be
00000190: b618 333d aa63 dc3e 41e6 8c3d ebe4 cbbd
000001a0: 51f6 33bf ce11 b5bd 181c e03d 249b e53e
000001b0: 2323 cb3c f86c 10bf 35ea 733d ecaa da3d
000001c0: 57f6 22bd b2be fa3d 60fe fa3c b962 77be
000001d0: 8dbf 8c3e 86f1 043d 2910 0c3e 6036 4abe
000001e0: 135d 47be ca70 873e 9582 41bd 8329 0a3e
000001f0: ccb4 d6bd 13cd 763c ad3e a2be 2cbb 3a3e
00000200: fa98 1dbd 8d4a 403e 5ef9 a5bd 12c7 dbbe
00000210: fdc9 413e 35f9 be3e 14a1 a7bd 649f 9f3d
00000220: cf6b f5be c83d bd3e 541f 603e 8c2d 2dbe
00000230: 8206 4dbe 8641 e4be aa8c 073f fc71 69bd
00000240: 1704 3d3e dfad 46bd 36ad a2be 461e 2f3e
00000250: d86c 973e c742 c1bd
0.061788637 -0.25147617 -0.42060885 0.16605982 -0.21613552 -0.19569868 0.2319655 -0.2801712
0.25805035 -0.10166398 -0.015571163 0.06861058 0.33015236 0.16343348 0.3300606 0.18275343
-0.07264455 0.24991101 -0.23495227 -0.04411694 -0.031538133 -0.2489557 0.106042705 0.081619225
-0.10507595 -0.12852873 0.0861501 0.30471203 0.4553948 0.08070746 0.10892311 0.0991291
-0.021181986 0.14456274 -0.1400202 0.17724405 -0.0091136955 -0.16541673 -0.23060083 -0.044605672
-0.033684406 -0.19737981 -0.20949799 -0.25821346 -0.08508189 -0.013324402 -0.031038202 -0.16090244
-0.3596748 -0.118915945 0.38701552 0.21380661 0.22372174 0.10695512 -0.15001719 0.11516809
0.21149501 -0.13296974 0.040034425 -0.18592551 -0.15318893 -0.16730453 0.104997024 0.08226714
-0.046130557 0.013082572 -0.10113826 0.12795007 0.097394116 0.19430263 0.13226351 -0.17829739
0.0673365 0.25568146 -0.040117197 -0.110427886 0.0321143 0.06806414 -0.24573126 -0.13297339
-0.11679576 -0.039901197 -0.21877909 -0.5397678 -0.19558491 0.017704422 -0.13955894 -0.20879237
-0.4848085 -0.0639959 0.15966044 0.073943436 -0.07559025 -0.07019008 -0.14718275 0.10193
0.02327975 -0.04288704 -0.051351067 -0.17707889 0.043724738 0.43044788 0.06879855 -0.09955772
-0.70297724 -0.088412866 0.109428585 0.44844925 0.024797028 -0.56416273 0.05954953 0.10677132
-0.03978571 0.122434035 0.030638874 -0.24158753 0.27489892 0.032456897 0.1367804 -0.19747305
-0.19469099 0.2645324 -0.047243673 0.13492398 -0.10483703 0.015063542 -0.31688443 0.18235463
-0.038475968 0.18778439 -0.08104204 -0.42925316 0.18924709 0.37299505 -0.0818502 0.07794073
-0.47933814 0.36961198 0.2188695 -0.16911906 -0.20022014 -0.4458124 0.5294901 -0.05699347
0.18458591 -0.04850566 -0.31772774 0.17101392 0.2957523 -0.09436565

conv1.bias f4 [6]
00000000: c15d 0c3e 33b1 52bd df33 acbc 1bc4 4fbf
00000010: bd8c bbbb 832c 20bc
0.1370764 -0.05143852 -0.021020828 -0.8115861 -0.0057235644 -0.009776237

conv2.weight f4 [16, 6, 5, 5]
00000000: 281a ef3c 8867 3abc a510 f23d ae9b 9e3b
00000010: 795f 7a3e 3d5a 0a3d 6d39 00be ecb1 1b3d
00000020: a187 b3bd 8e59 293e 2812 5ebd 1580 dc3d
00000030: 39aa 1b3d 737f 09be 90d0 2a3e 4e90 77be
00000040: 420b 213e 88d5 413d 906c f6bd 178b ef3c
00000050: d58e 23be d3a8 773e 5bdb 7cbd 56f7 013e
00000060: 82a4 0b3e ee2d ccbb 2395 0b3d 6e27 47bd
00000070: 599f 1a3e 1a64 1f3d 99ad 143c 4698 c13a
00000080: 611e 20bc 8450 223d ed6a f43b 6406 43bb
00000090: 8738 21be 3e41 20be cbb0 683d b283 ac3d
000000a0: ea2f a53d 1c77 bebd b409 7abd e41e e03c
000000b0: dde5 47bd 2236 633d 5707 c3bd 3980 df3d
000000c0: 5396 df3d 27fb adb9 8d71 67ba 0f05 013d
000000d0: 21df cabc 704e edbd dc11 013e 9ec4 e53d
000000e0: 958d 9bbd cfec dabd 7e2c 1abe 2ec0 b8bd
000000f0: ea1c dd3d 8c6e 3d3a dda2 5cbd 1edd cabd
00000100: e5a1 983c 475a aabb 0500 b03c 64fe 993c
00000110: 9c62 043c 9e22 a93d bad7 0d3e fcaa 3a3e
00000120: e627 c2bd a3f9 04bd ebaa cf3c af22 673d
00000130: fb9d 923d 8135 b53d 2c05 663e 2892 c43b
00000140: 3c32 0abc 0760 1e3d e991 073e b7a6 0c3e
00000150: 4047 dfbd 38b4 bd3d 55ef c4bd b81f cd3c
00000160: a318 543c 6033 c7bd fd98 883d 5420 0dbe
00000170: 5203 08be 0044 98bd c8ae 02be eeda 333e
00000180: 11b4 e2bd 32f7 bcbd bc70 8abd faf2 c9bd
00000190: 4583 1e3d 047e b7bc 4e7d a43d d572 b9bd
000001a0: c0b0 aabd 2715 1dbe 1111 1b3d 428e b43d
000001b0: cf32 70be 3573 9ebe 847b 61bd 0eaa 3d3d
000001c0: b0bd 113e cd0d 03be 3b37 b1be 9dcf a0bd
000001d0: 1b17 123e aa06 ee3d 9d23 82be 7f98 8dbe
000001e0: fcb3 383e bb51 2c3e 61b0 b73b 6ae4 b4be
000001f0: 06ef 873c 1905 04bc a04c c63a b954 2c3d
00000200: 43b4 3abf a50e bdbd 0fb3 1d3d 41f0 823d
00000210: e0c1 aebc 9be3 18bf 9af9 1dbd ccbb 863d
00000220: d8ef 7f3d f82d f33d d724 95be c440 1abd
00000230: cb29 d13a 3ef0 0f3e 162b 3c3e 9557 9abe
00000240: 164c d8bd 0a41 3a3e c836 6f3e 498a 26bc
00000250: c377 32be 21c1 38be 91f7 97bd 928b 563e
00000260: 0d24 5d3e 4f0b f13e 4c6d b33e 30ce 18bd
00000270: 9bf1 babc 9b2a b9bd 607b 9bbb 7a4c 7ebe
00000280: c0b5 b337 8c4f 0bbe 9203 973b 6a4b 1e3e
00000290: a6f2 b9bc f80c d03b 81dc 463d d330 9abd
000002a0: 7d06 cf3c 43b8 3abd 5978 933e 851a 143e
000002b0: 22ea e73d 0cf8 da3c 8ddf 163d 1705 993d
000002c0: 3a79 a1bd e6ff 08be 6de8 1cbd 35a1 d1bd
000002d0: 1da7 9bbd 12bc 1cbd 1bd3 9dbc b36d 9abc
000002e0: ad8b fa3d 3c43 0ebc 7bf9 fa3b a0d3 39be
000002f0: ccc1 78bb 2b0b 413d f120 93bc 81d8 51bc
00000300: 2329 bfbd c042 32be aabc 1abd f199 033d
00000310: 982f 063e 84ab f23c f171 37bd 0b0d 04be
00000320: 3899 a23d a788 22be 4a87 09be de77 85be
00000330: 23fb 67be d40f db3d 0ae5 51bd 9500 1dbe
00000340: bd73 59be 74dd 0fbe 4fa6 b43d a0b2 00bd
00000350: 8113 9c3b 6d86 23bd fa5c 1a3b 69e6 b23c
00000360: 93cb 4e3d c5c0 023e 8ce1 c33d d15f 203e
00000370: 6b9b 0bbe 92a6 a0bd 51fe 51bd c50b 073e
00000380: 9fe0 533e 8b42 1fbd 4282 36bd 2ec3 7c3e
00000390: 1c9b 893e d09b 653e 728a b53d 3419 943c
000003a0: 85f5 36bd 7837 d1bc 74e8 5f3c d1b7 ba3d
000003b0: c117 8fbc f436 1fbe aa65 10bd 5618 243e
000003c0: 954c 7f3d c2b1 99bd fa30 12be e566 48be
000003d0: ec0f 4dbd aa88 c63c 0c09 30bd d5df a6ba
000003e0: ce37 83be ae0d 99bb 7346 923e 2989 c53e
000003f0: af4f 253f b3ce f53b ef98 d8bd 82e3 cb3d
0.029187277 -0.011377223 0.11819581 0.004840336 0.24450482 0.033777464 -0.12521906 0.038011476
-0.087661035 0.16538069 -0.054216534 0.10766617 0.038004134 -0.13427524 0.16681123 -0.24176142
0.15726951 0.04732278 -0.120324254 0.029241128 -0.15972455 0.24185495 -0.06173263 0.12692007
0.13636974 -0.006231061 0.034077775 -0.048621587 0.15099849 0.038913824 0.009074592 0.0014770112
-0.009772868 0.039627567 0.0074590356 -0.0029758448 -0.1574422 -0.15649888 0.056809228 0.084235564
0.080657795 -0.09300062 -0.06104441 0.02735848 -0.0488032 0.055471547 -0.09522884 0.109131284
0.10917344 -0.00033184254 -0.0008828871 0.031498965 -0.0247646 -0.115872264 0.12604469 0.112191424
-0.07595364 -0.10689699 -0.15056035 -0.0902103 0.107965305 0.00072262506 -0.053866256 -0.09905456
0.018631885 -0.00519875 0.021484384 0.01879806 0.008080151 0.08258556 0.13851824 0.18229288
-0.09480266 -0.032464635 0.025350055 0.05642956 0.07159039 0.08848096 0.2246291 0.0059988685
-0.008434828 0.038665798 0.13239254 0.13735472 -0.10902262 0.092628896 -0.096159615 0.025039539
0.012945327 -0.09726596 0.06669805 -0.13781863 -0.13282517 -0.07434845 -0.12761986 0.17563984
-0.11069501 -0.09226836 -0.067597836 -0.09860797 0.038699407 -0.022398956 0.080317125 -0.090551056
-0.08334494 -0.153401 0.037858073 0.08816196 -0.23456882 -0.3094727 -0.055049434 0.046304755
0.14232516 -0.12798233 -0.3461245 -0.07852099 0.14266627 0.11622365 -0.25417796 -0.27655408
0.18037409 0.16828053 0.005605743 -0.35330516 0.016593467 -0.008057856 0.0015129037 0.042072985
-0.7293131 -0.09231309 0.03850084 0.06393481 -0.021332681 -0.597223 -0.038568117 0.06578788
0.062484592 0.11874002 -0.2912967 -0.03765942 0.001595789 0.14056489 0.18375811 -0.30144945
-0.10561387 0.18188873 0.23360741 -0.010164806 -0.17428498 -0.18042423 -0.074202664 0.2095168
0.21595784 0.4707894 0.35044324 -0.03730601 -0.022820285 -0.090413295 -0.004744932 -0.24833861
2.1423097e-05 -0.13604563 0.00460858 0.15458456 -0.022698712 0.0063492022 0.048550133 -0.07528844
0.025271649 -0.045585882 0.28802755 0.14463241 0.11323954 0.026729606 0.03683429 0.07471674
-0.0788445 -0.13378868 -0.038307596 -0.10235826 -0.07600234 -0.038265295 -0.019265702 -0.018851137
0.12233672 -0.008683022 0.007659135 -0.18147135 -0.0037957309 0.04712979 -0.017960044 -0.012807966
-0.09334018 -0.17408276 -0.03777758 0.03212923 0.13104093 0.0296228 -0.044786397 -0.128956
0.079393804 -0.15872441 -0.13430515 -0.26068014 -0.22654395 0.10696378 -0.05124382 -0.15332253
-0.21235557 -0.14049321 0.08820783 -0.03142035 0.0047630672 -0.03992312 0.0023553954 0.021838384
0.050487112 0.12768848 0.09564504 0.15661551 -0.13633506 -0.07844271 -0.051267926 0.13188083
0.20691155 -0.03888182 -0.044557817 0.2468383 0.26876152 0.22422719 0.08864297 0.018078424
-0.04466774 -0.025539145 0.013666261 0.091170914 -0.017467381 -0.15548307 -0.035253204 0.16024908
0.062328894 -0.07504608 -0.14276496 -0.19570501 -0.050064012 0.024235088 -0.042977378 -0.0012731502
-0.25628513 -0.00467082 0.28569373 0.38581207 0.6457471 0.007501447 -0.10576045 0.09955503

conv2.bias f4 [16]
00000000: c5fb 5f3e 9f08 cd3d e17c 72be 8154 0bbe
00000010: d6de 88be 4023 a33c b4a0 0e3d d342 db3d
00000020: d669 343a 80a1 83be 5724 6e3e 58bd 38be
00000030: aff4 123e 247f aebd 8e8f 253e f6c3 56be
0.21873386 0.1001141 -0.2368045 -0.13606454 -0.2673251 0.01991427 0.034821227 0.10706105
0.0006882226 -0.25709152 0.2325605 -0.18040979 0.14351152 -0.08520344 0.16168043 -0.2097319

fc1.weight f4 [128, 256]
00000000: 3d10 473d d537 b2bd c3ea 263e e9ea 5c3d
00000010: 1688 eb3d ef8d 833b 7ec4 19bd 6768 7d3c
00000020: db45 503d b9e3 53bc fef6 55bd 21bc 323d
00000030: 52b8 4a3d fbe3 8fbc 2e41 fabd 3042 c33c
00000040: 085b 03be 990c 74be 87b0 043e 8117 243e
00000050: d0b7 ebbd 1172 15be c9e3 ccbd ba33 793d
00000060: 3c54 4a3e 88f7 513d b2ff ea3d 935f 333d
00000070: 67aa e63d 13b7 743c d01f 6d3d 49a7 b43e
00000080: a312 d63d fbd5 e13d cfbe 9cbd aab5 0abe
00000090: 68b2 01bd 16e8 f9bc ac15 e03d dee9 00bc
000000a0: 62b1 7abe 208f 743c 5c3e 223d 7265 063b
000000b0: 92a6 6dbd 63a4 4dbe e14a a5b9 6322 abbd
000000c0: 6701 04be 1915 df3e 3d99 733d f529 583d
000000d0: 321c e4bd 0faa ccbd 660e 42bd ea73 ad3c
000000e0: 0b1e edbd 53bd d93d d33b 8f3c ce22 df3d
000000f0: 6c51 ff3c 4b45 75be a77b a7bd c41d 09be
00000100: e3af fbbd 5547 96bd dfd2 bfbd 98e2 9f3c
00000110: 77b7 a23b fcc4 f3ba 7186 843c f141 fcbb
00000120: 550e ebbd 3f4a 29bd 77ed aabd cfff 8a3d
00000130: dd92 8a3c 2532 423b 21e4 173d d071 9bbd
00000140: 304d 6f3e 0721 033d 6b0b ccbd 701f 8ebd
00000150: f396 053d 651d b33d 7af5 0f3d 15e1 69bd
00000160: 41fb abbb 2fe1 47bd 2783 e53d ba6f 183d
00000170: f9e1 e13c b58e adbd 454d c93d 76fe 603e
00000180: d057 253d 4792 0ebe 818a 25be 13a5 ecbd
00000190: eb4f da3c bee3 31be a00c 38bc 2060 e03d
000001a0: c119 81bd 603d e5bd 0a35 23bd d35e d03d
000001b0: 87c8 1ebe 8bd9 acbd 6d8a 0fbd a883 cc3d
000001c0: 5bc6 edbd 736e 6cbc a7a8 253b 7ac0 2a3d
000001d0: b908 d43d c8c3 9dbe 3197 233d 5037 13bd
000001e0: f6aa c2be 48f8 3abe 11a8 d6bd 79d0 bebd
000001f0: d51b 0c3e c697 5cbd e7f4 b73d 1ef5 bb3d
00000200: 58de 073d 368e 143e 5276 c03d b882 5fbc
00000210: eb3d 2c3c 52dd 08bc e41a babd 4e94 dbbd
00000220: 4ee8 0b3e 9cfd e43d 5272 fdbd 6a26 2abc
00000230: 1d91 edbd eea9 1abe f798 3c3c 9e04 70bd
00000240: 1d62 233e b27f 863d ab78 7ebe 7a42 85bd
00000250: c4c1 fa3d 2209 7abd 7c2d 78bd 5007 a23b
00000260: 2604 3f3d be1a 883d 33c2 543d 05c7 69bc
00000270: d1a7 6c3c 77e1 a73d 15b8 22be 5a5a 3abd
00000280: 3312 863d b964 4bbd 0614 1f3d 79e1 103e
00000290: 1df4 a63d 07c9 92bc 29fa a93d 27a3 723e
000002a0: dd93 a03c c5bf 293e 2155 283d 2746 db3d
000002b0: cd31 0f3e 8126 e8bb 5ccd e9bd 07fb c43d
000002c0: 6a6b 24be 9291 053d c858 103e 3391 b73c
000002d0: 7edc a23c 96ce 22bb d4d2 c53d 6cf6 afbc
000002e0: 42ca 1bbc 88cb 903d 61c3 0c3e 4f8a 073d
000002f0: 3401 1b3e ce9c 21bc 74d3 383d 5af1 883d
00000300: 99d2 1a3c bc28 c53d fcf8 c8bd 14c9 96be
00000310: e0cf acbd e165 c03d 9237 a1bd 3856 5abe
00000320: 6e54 7fbd 600c 643d a506 4ebe 52c4 20bd
00000330: a358 b2bd dac2 1ebe c345 1cbe e305 13bd
00000340: c166 a33b d966 0f3d d8ba a73d 5566 733d
00000350: c2ec c93d 21fa bdbb 107d cebd 7e99 06bd
00000360: 1716 9bbd a15c d2bd 790b bf3d 81a4 cabc
00000370: 6a01 af3d dd5a c53d f5aa c13d 5cf3 ae3d
00000380: e074 0ebe 06d8 1abd 36de a53c ffbd 2f3d
00000390: d837 e33a 9b3c 05bc 3616 db3d 3bf7 2dbd
000003a0: 8069 473e 4d5b 2abd 5a9e 09bc f9b8 513e
000003b0: a1f3 5e3b 7c92 8abb 66b0 043d def9 e93d
000003c0: 430e 34be 6266 a13c 0707 61bd e540 0ebe
000003d0: 683d dbbd 6786 9d3c f954 2ebe 687a d6bc
000003e0: 1522 a5bd 4b0d 5a3c 15c4 463d dedd 10be
000003f0: 9df7 f1bc ebda 123d cc31 83bc 5538 c3bd
0.04859947 -0.08702055 0.16300492 0.053934965 0.11500566 0.0040147225 -0.037540905 0.015466786
0.05084787 -0.012932711 -0.052237503 0.043636445 0.049492188 -0.017564764 -0.12219463 0.023835272
-0.12827694 -0.2383293 0.12957965 0.16024591 -0.11509669 -0.14594294 -0.10004384 0.060840346
0.19758695 0.051261455 0.11474551 0.04379232 0.112629704 0.014936226 0.057891667 0.35283878
0.104527734 0.11027142 -0.07653581 -0.13545862 -0.031664282 -0.030506175 0.109416336 -0.007868258
-0.24481729 0.014926702 0.03961025 0.0020507243 -0.058020182 -0.2008224 -0.00031527042 -0.08356168
-0.1289116 0.43570784 0.05947231 0.05277439 -0.1113819 -0.099933736 -0.047377013 0.021173436
-0.11577996 0.10631814 0.017484581 0.1089531 0.031166755 -0.23952214 -0.08177882 -0.13390261
-0.12289407 -0.07337824 -0.09366392 0.019517228 0.0049657184 -0.0018598135 0.016177388 -0.0076982905
-0.11477343 -0.041330572 -0.08346074 0.06787073 0.016915733 0.002963194 0.037082795 -0.075900674
0.23369288 0.03201392 -0.09963115 -0.0693959 0.03261466 0.08745841 0.035146214 -0.05709942
-0.0052484577 -0.048798736 0.11206656 0.037215926 0.027573572 -0.08474485 0.09829191 0.21972069
0.040366948 -0.13922988 -0.16166116 -0.11554923 0.026649436 -0.17372033 -0.011233479 0.109558344
-0.0630374 -0.11193347 -0.039845504 0.10174336 -0.15506183 -0.084399305 -0.035044122 0.09986049
-0.11610099 -0.01443063 0.0025277527 0.041687466 0.10353226 -0.30813432 0.03993911 -0.035941422
-0.38021058 -0.18258774 -0.10481275 -0.09317107 0.13682492 -0.05385568 0.08982258 0.09177612
0.033171028 0.14507374 0.09397568 -0.013642006 0.010512809 -0.008353548 -0.0908716 -0.10721646
0.13662836 0.11181185 -0.123753205 -0.010385135 -0.11599944 -0.15103886 0.011511079 -0.058598153
0.15955396 0.06567325 -0.24850719 -0.0650682 0.12243989 -0.061043866 -0.060590252 0.0049447194
0.046634816 0.06645726 0.051943015 -0.014268641 0.014444307 0.08197301 -0.15890534 -0.045496322
0.0654644 -0.049656603 0.038837455 0.14148511 0.0815203 -0.017918123 0.082996674 0.2369505
0.019601757 0.1657706 0.04109681 0.1070674 0.13983841 -0.007084668 -0.11416122 0.09618192
-0.160566 0.03260953 0.14096367 0.022408104 0.01988053 -0.0024842373 0.09659353 -0.021479808
-0.009508671 0.070700705 0.13746406 0.033090886 0.15137178 -0.009864045 0.045123532 0.06686659
0.009449624 0.0962691 -0.09813115 -0.29450285 -0.084380865 0.09394432 -0.07871927 -0.21321952
-0.062336378 0.055675864 -0.20119722 -0.039249726 -0.08708312 -0.15504017 -0.15260987 -0.035894286
0.0049866145 0.035010193 0.081899345 0.059423763 0.09859611 -0.00579764 -0.100824475 -0.032861225
-0.07572573 -0.10271574 0.0932836 -0.024736645 0.085451916 0.096364714 0.094564356 0.08542511
-0.13911772 -0.037803672 0.02024756 0.042905804 0.0017335368 -0.008132125 0.10697596 -0.042472105
0.19473839 -0.041590977 -0.00839957 0.20480718 0.0034019726 -0.004228888 0.03239479 0.114246115
-0.17583565 0.01970214 -0.054938342 -0.13891943 -0.10705072 0.019229127 -0.17024602 -0.026181415
-0.08063141 0.013308833 0.048526842 -0.14147136 -0.029537017 0.035853308 -0.016014956 -0.09532229

fc1.bias f4 [128]
00000000: 9e4c bc3d 5276 5d3e ba2b da3c dc0e 22bc
00000010: f03b 10bd 552e e6b9 587c 5fbd 33f0 643d
00000020: 578c 67bc d3b0 79bd 6b3b ca3c 52cc 94bc
00000030: ad0f a23d 831e 583d c546 6dbc bb02 e43d
00000040: 7ae9 2a3d 1b7e 133d d551 43bd ace2 92bd
00000050: 7020 5c3d c3c3 bfbd f50f 073e f5d4 f73b
00000060: 6937 d13b 5c7f 1c3d c7e5 a0bd 9c20 07bd
00000070: 7b55 21bd 681e 25bb 9053 2c3c 5a4c 473e
00000080: d997 84bd 7de7 203d 909c 68bc a822 0d3d
00000090: 3cae 65bd 87d1 1a3e 2926 f33a a8ab 91bd
000000a0: 7150 693d e71b ea3d 22cb 20bd 8600 64bc
000000b0: 7775 9dbb 9807 d73d 0405 343c e55b 29bd
000000c0: 0910 4d3c 1988 4f3d af18 623e 3123 2c3d
000000d0: a1aa 1b3d 5aac 2e3d d7d4 023e 5ce3 793d
000000e0: cb88 243e 8829 903d 8ad9 c13c f76a 953d
000000f0: 1717 c63d 79d5 94bd 8cba 263e 9993 033e
00000100: 720e 913c fe3f b33a 7544 14bb 7d21 193e
00000110: 04a9 033e 36d2 533d d341 023e 6893 1fbb
00000120: 32c0 6b3d ba42 5d3d 7248 343e 6c69 52bd
00000130: 12aa ac3c 9404 18bd 4e79 31bb 6420 43bc
00000140: 8af7 89bd 5bf0 8fbc 6d27 4a3d 780b 953d
00000150: dd6c 0639 40d2 ec3d 205e a63d e866 40bd
00000160: b6f6 15bc a689 173d 554b 04bd f4d9 8ebd
00000170: 5765 0fbd 69e9 763e 9e9b b73b a0f6 8dbc
00000180: 6a96 133d cc42 a93d d401 3b3d a845 d03d
00000190: ea42 43bd fd45 3c3d 7379 1d3c 1c40 11bd
000001a0: 5f6e 363d 6729 c33c 362f 103d 1561 d2bc
000001b0: 12d1 e63d e999 653d 9288 a5bc 4e86 203a
000001c0: dbfd 3c3d 0516 35bc 4193 933d 585c 693d
000001d0: f76a d5bd b5e0 c03d a671 f4bc 46b7 463e
000001e0: c042 b63d 3a57 b33d 972e 6dbd cec1 a1bc
000001f0: dd3f 3c3b ca04 ed3d e79e 283e 7bf2 81bd
0.09194301 0.21627167 0.026632179 -0.009891238 -0.03521341 -0.0004390354 -0.054561943 0.055893134
-0.014132581 -0.06095965 0.024686536 -0.018163834 0.07913146 0.052763473 -0.014482205 0.11133333
0.041726567 0.036008935 -0.047685463 -0.071721405 0.053741872 -0.093635105 0.13189681 0.0075632283
0.0063847792 0.038207397 -0.078563266 -0.032990083 -0.03938816 -0.0025195125 0.01051797 0.1946272
-0.06474275 0.039283264 -0.014197484 0.03445688 -0.056074366 0.15118991 0.0018550801 -0.07112819
0.05696148 0.11431103 -0.039256223 -0.01391614 -0.0048052627 0.10499495 0.010987524 -0.041347403
0.01251603 0.050666902 0.22079729 0.04202575 0.03800452 0.042644836 0.12776504 0.061007842
0.16067807 0.070391715 0.023663301 0.072957925 0.09672373 -0.07267279 0.162821 0.12849273
0.017707083 0.0013675687 -0.0022623811 0.14954181 0.12857443 0.051714145 0.12720422 -0.0024349336
0.05755634 0.054018714 0.1760576 -0.05137007 0.02107719 -0.03711374 -0.002708036 -0.011909578
-0.067366675 -0.017570665 0.049354006 0.07277578 0.0001281979 0.115635395 0.08123422 -0.04697314
-0.009153059 0.036996506 -0.032298405 -0.06975165 -0.035008755 0.24112476 0.005603268 -0.017329514
0.036032118 0.082646936 0.04565604 0.10169536 -0.047671236 0.045965184 0.009611475 -0.03546153
0.04453885 0.023823453 0.035201274 -0.025681058 0.11270346 0.056054983 -0.020206723 0.00061235286
0.046140533 -0.011052613 0.07205821 0.05697283 -0.104207925 0.094178595 -0.029839348 0.19405851
0.0889945 0.087568715 -0.05790576 -0.019745734 0.002872459 0.11573179 0.16466866 -0.063450776

fc2.weight f4 [64, 128]
00000000: 719a b93c 72e4 4dbe 18d3 f0bc a4b3 593b
00000010: adfc 8fbd f878 653c feca b73c 62bf d93d
00000020: b362 3bbd b44b 633d 118a 863c 5bb6 1b3d
00000030: b5cd 633c 1935 c9bb 8092 8dbb a7c2 8abd
00000040: 7b65 143e a002 803e a7ae 3a3e a12a 473d
00000050: a474 0c3e 7f1f 1bbe 9940 25be 8f20 b93d
00000060: 55ec 313c dee4 02be e2a7 e53d 6da8 023d
00000070: 5bdb 843d d519 af3c ba67 e73d 44b3 1f3e
00000080: e0ad 86bd d656 54bd 4b9b c2be cf28 6abd
00000090: ec07 153d fc5c f5bd 1918 68bb 152f 923d
000000a0: 8741 fe3c b9ab fabc 7285 f2bd eb24 233e
000000b0: 055a c93d f7e8 6b3d faec ebbc c7c0 0d3e
000000c0: 89cc 4cbd 69f5 2bbd 79e9 ffbd 98c1 333e
000000d0: 4832 4b3d 9280 b7bc 344a a13e 378e 99bc
000000e0: aa71 633e ffcb 02be 0bab 6fbe 433d 4e3e
000000f0: 5572 6ebd 193b 7bbd ea3d 6ebd 472e 9d3d
00000100: 9857 523d d82f 3abe 6254 fd3d b279 f7bd
00000110: fcb8 2e3e b0e0 81bd a891 b53d 52c2 203e
00000120: 30dc c73d fe7c 9c3e 00ca 8e3e af48 42bd
00000130: 37d8 2a3e c9f0 3fbe d879 953d 88e2 a73c
00000140: 804b 43ba 807b cfbc bcbd 153e 201d 6bbe
00000150: 3093 4b3c e031 f3be 4a3d 82be b10c de3d
00000160: e10f ae3d ba23 c43d b539 1ebe 0e9c 1abb
00000170: 1998 9fbd d714 b1bc 2915 ca3c 3b72 343d
00000180: e83a 9ebc cf61 26be 7063 d13b 1dfe bb3d
00000190: e377 1e3d 680d fabc 4e32 623d 954d f53c
000001a0: 1e67 2e3d 7920 97bd b508 99be a1ef 723d
000001b0: 1eed ce3d e55f 0d3d d673 353e a32e 3fbd
000001c0: 8249 d33d c9d5 cdba 0718 bdbd 6c39 5c3d
000001d0: f0f4 42bc 3054 2f3e c32f 4ebd 3007 34bd
000001e0: 3479 9abc 7ba5 f6bb c16a ce3c ba72 2ebd
000001f0: e44c 1fbe 5395 c93d 282f 8ebd befa aebb
00000200: a803 febc f622 b5bd 8083 b43c 2280 aa3d
00000210: c9d3 14be c6b8 543d d249 7f3d fdd5 4abd
00000220: 28f6 bb3c a74b 5fbe 4f4c 9e3d 5ce7 81be
00000230: dffc a23d 179b e2bc 5f80 ea3b 40e4 e73c
00000240: 4af7 e33d 6f36 42be 9055 d9bd 6c82 fb3c
00000250: d921 0ebe 99e4 a1bc c0d1 413e f58c 283e
00000260: 3f08 ea3c 318d 3c3e 4552 34bd e4a9 38bd
00000270: 6b07 9bbd ff18 a5bd e4bc 4abe ed60 63be
00000280: 4ce6 98bc 5008 35be c8e8 d0bc 2d63 b0bd
00000290: 92af 11bd c2a7 863c 8d40 17be 1e2f debd
000002a0: 5dc6 d6bc 32d5 423e 9b43 14be 05c7 b2bd
000002b0: 6664 163e 3c68 193e ed97 46bd cec7 81be
000002c0: d75e 6e3d 1233 e73b 28e5 8e3c 29c3 b5b9
000002d0: f917 da3d 8109 623c 7b6c c0bd 2e77 2c3e
000002e0: 3553 043e f42f 043e 0356 263e e088 38be
000002f0: 8ece 1d3e 0172 9cba 51c2 eebe ad1d 753d
00000300: 5e3c 3f3d d9ac 353d fc5c 25be 1787 963e
00000310: 9711 41be 5df0 93bd 358a de3d d612 9abe
00000320: abc6 debd 1b54 b0be 655e 483c 9505 253e
00000330: e99f c1be f9e7 c7bb 04ec 1c3d 4c11 8abe
00000340: e5c8 9ebd 5a80 0c3e 80a2 a0bc 32b4 783e
00000350: f038 27bd a8b3 ed3d f7fb 073e 1857 21bc
00000360: 46f3 ebbc cf4c 443e 9609 4fbc 5e0b 763d
00000370: 44a3 eb3c ff81 313e b7ac d4bc 9b73 113a
00000380: 4751 883c c64e 5a3e f0b7 4cbc a778 de3c
00000390: e2de 993d ec7e 2dbe 0202 8c3d a069 48bc
000003a0: 23ab 5b3e 2fb6 66bc c5bf ea3e 73e3 8ebd
000003b0: 5408 0e3c dedd 6a3b e41d 82bd edf8 f63c
000003c0: 3acd ac3d 0127 cdbd 0a86 b83d 1cdd a7bd
000003d0: e5a1 48bd 5e7f ca3c 06df 82bd db8e 803d
000003e0: 2dd2 bebd 72f9 c53c c3ed 8ebc 2600 8f3c
000003f0: c2b9 30bd 7a58 3839 6dd5 a1bd 873e 8abd
0.022656651 -0.20106676 -0.029397532 0.0033218646 -0.07030616 0.014005892 0.022435661 0.106322065
-0.045748424 0.055492118 0.016423257 0.038015705 0.013904025 -0.006140363 -0.0043204427 -0.06775408
0.14491837 0.25002003 0.18230687 0.04862464 0.1371637 -0.15148734 -0.16137923 0.09039413
0.010859569 -0.12782618 0.11213662 0.031898905 0.06487151 0.021374622 0.11299081 0.15595728
-0.06576133 -0.051840626 -0.38009104 -0.057167824 0.036384508 -0.11980626 -0.0035414754 0.071378864
0.031037105 -0.030599462 -0.11841859 0.15932052 0.09831623 0.05759522 -0.028799523 0.1384307
-0.049999747 -0.04198209 -0.12495703 0.17554319 0.0496085 -0.022400174 0.31501925 -0.018744571
0.22211328 -0.12773131 -0.23405091 0.20140557 -0.058214504 -0.061335657 -0.058164515 0.07674842
0.051353067 -0.18182313 0.1236961 -0.120837584 0.17062753 -0.06341684 0.08865672 0.15699127
0.09758794 0.3056411 0.2788849 -0.047432598 0.16684042 -0.18744196 0.072986305 0.02049376
-0.000744991 -0.025327444 0.14623159 -0.22960329 0.012425229 -0.4749899 -0.25437385 0.108422644
0.084991224 0.09577127 -0.15451701 -0.002359155 -0.07792682 -0.021616383 0.024668293 0.04405425
-0.019315198 -0.16248249 0.0063900277 0.09179328 0.03868855 -0.03052397 0.055223756 0.02994422
0.04257881 -0.073792405 -0.29889455 0.05931056 0.1010382 0.03451528 0.17719969 -0.046675336
0.10316755 -0.0015703972 -0.092330985 0.0537657 -0.011899218 0.17121959 -0.050338518 -0.043952167
-0.018856622 -0.007527051 0.025197389 -0.04258988 -0.15556675 0.098429345 -0.06942588 -0.0053399494
-0.031007603 -0.08844559 0.02203536 0.08325221 -0.14533915 0.051934026 0.06232626 -0.04952048
0.022944525 -0.21806203 0.077293985 -0.25371826 0.079583876 -0.027661843 0.0071564163 0.02830708
0.11131151 -0.18966077 -0.10612023 0.030701838 -0.138801 -0.019762324 0.1892767 0.16460021
0.028568385 0.18413235 -0.04402377 -0.045083895 -0.07569774 -0.08061408 -0.19798619 -0.22204943
-0.018664502 -0.17678952 -0.025501624 -0.08612666 -0.035567828 0.016437415 -0.14770718 -0.10848831
-0.026217634 0.1902664 -0.14478914 -0.08729366 0.14686736 0.14981169 -0.04848473 -0.2534775
0.058195915 0.0070556486 0.017443255 -0.00034668416 0.10649104 0.013796211 -0.09395691 0.16842338
0.12922366 0.12908918 0.16243748 -0.18020964 0.15410826 -0.0011935831 -0.46632627 0.059842754
0.04668843 0.044354293 -0.16148752 0.2939994 -0.18854366 -0.0722358 0.10866205 -0.30092496
-0.10877737 -0.34439167 0.012229537 0.1611541 -0.37817314 -0.0061006513 0.03831102 -0.2696632
-0.07753161 0.13720837 -0.019608736 0.24287489 -0.040825784 0.11606532 0.1327971 -0.009847425
-0.028802525 0.19169925 -0.012636563 0.060069434 0.028764375 0.17334746 -0.025961263 0.00055485376
0.016640319 0.21319112 -0.012495026 0.02715714 0.07513215 -0.16942948 0.068363205 -0.012232214
0.21452002 -0.014081522 0.45849434 -0.06976976 0.008668978 0.003583781 -0.063533574 0.030147994
0.08437581 -0.10017205 0.09009941 -0.0819647 -0.04898252 0.024718937 -0.063901946 0.062772475
-0.093174316 0.024166796 -0.017447358 0.017456125 -0.043145902 0.00017580568 -0.07902036 -0.067502074

fc2.bias f4 [64]
00000000: 7b9e 193d 5ed0 db3d 473d 4a3e 6e4a 293e
00000010: 9f1f a43d 443d ed3d 5abc 3abe 7b2f 55bd
00000020: a04d a23d 0fb1 a4bb 7b8d 433c 5ce7 043e
00000030: 9d6d 13bd e28a c93d fb92 9a3c 2dcd ac3d
00000040: aa67 4f3d 490a 83bb 2869 2b3d 81a9 f83d
00000050: 1a7d d13d 8ee1 113d 81e3 a0bd 1c62 b23c
00000060: 6658 83bd e7ff 46bd 0e7e fdbd 6260 a1bd
00000070: c8cf 3d3e 6765 313e 71b0 86bd 6891 133e
00000080: 70e6 f23d c11a a7bd 0e29 033b a596 a7bd
00000090: c602 1cbc 591e 0b3c 82b4 e43d 3e67 9c3a
000000a0: a333 3c3d c9a2 573e e422 073e 5dd0 0cbc
000000b0: 91aa d43b 8f05 cd3d 5e57 043e 4ee3 97bd
000000c0: 2bb0 32bd 40e4 123e b766 4a3e a7db 8f3d
000000d0: 9e9d eebc 1d1a 76bd 6a50 d53c 489b 4e3d
000000e0: 8771 bbbd 1067 373e fd82 b6bd 6370 e73d
000000f0: f83e f33c 2f3c b83d 2d85 f9bc 4417 563d
0.037504654 0.10733102 0.19749938 0.16532299 0.08013844 0.11583951 -0.18235913 -0.052047234
0.07924962 -0.00502599 0.011935587 0.12978882 -0.035993207 0.09840943 0.018868914 0.08437572
0.05063597 -0.003999029 0.04184833 0.12141705 0.10228939 0.035615496 -0.07855893 0.021775298
-0.06413345 -0.04858389 -0.12377559 -0.07879712 0.18536294 0.17323838 -0.06576622 0.14410937
0.11860359 -0.081594 0.0020013484 -0.0818303 -0.009522146 0.008491122 0.11167242 0.0011932624
0.045947682 0.21058191 0.13196903 -0.0085946 0.0064900597 0.10010826 0.12923953 -0.07416402
-0.043625038 0.14344883 0.19765745 0.07024317 -0.029127892 -0.060083497 0.026039321 0.050441056
-0.09152513 0.17910409 -0.08911703 0.11300733 0.029693112 0.08995854 -0.030459011 0.05226828

fc3.weight f4 [10, 64]
00000000: 140f 193d 65ef 183e ace7 8fbe 42f8 f4bc
00000010: e23e 63bd 7807 2d3b 6f4e 06be bd49 95bc
00000020: 6632 363e c3a3 debd b5ae 50be d897 54bd
00000030: 4598 a9bc 042c 693d 3464 213d 184f 343e
00000040: ef5a c33d 103b ef3d e8d6 853d f85a 0b3e
00000050: 4671 cabd d8f9 f03d 4645 8abe bd0f 04be
00000060: fc41 9c3e a76f 92be cfa8 cbbd ef7b 6fbd
00000070: 1c4d f43b 1bf1 80be 42be a1bd 9b69 a5bc
00000080: be5c 073d 4939 e33d ecb6 863c f310 1cbe
00000090: d5c1 023d 4cff 3d3e 6788 ef3d f781 f2bd
000000a0: 17ee 50bc ad70 76be 2b36 a2bd 83a2 0dbe
000000b0: eabf 16be 6a6b 6dbd fe8d 3abe 1c39 87bb
000000c0: 5091 0d3e 2d43 353e f865 91be f31b 28be
000000d0: f317 273e fb37 b7bd a188 86be 98b5 323e
000000e0: d4e5 183e 0078 85bd 15df f83d cca2 a8be
000000f0: 4693 b93d 0957 1bbe ef8c 37bd d3e4 f03d
00000100: ac65 253e b3ed abbe 1d83 57be d60e 1dbd
00000110: 555a e53d b517 8cbe e177 563e bd15 9e3c
00000120: e9c6 373e 3bab 493e 52e8 0ebe c995 e9bd
00000130: e3c4 f3be aca9 4d3e eaa2 5b3d eed2 52be
00000140: de56 273c 47f8 1fbc 9680 afbe 96a4 963d
00000150: 2cb1 9dbd a1a4 a73c 9b34 b0bd 1a02 8f3e
00000160: 14bb fb3c c1b5 503e a7f3 6ebd 3207 61be
00000170: e07d 2e3d f29c 8bbe 7298 37bc 134d 0cbd
00000180: 5916 9fbe 22da cf3a 828f 7fbd 3d2c 183e
00000190: cf63 adbc cd5d 0bbe d528 aebd ebfa 0e3e
000001a0: d980 4ebd 325d babe 3d4f 00bf 9290 5a3e
000001b0: 173a db3e 8108 383e 69a5 2cbe 2f4d 2cbd
000001c0: 01bf 92be a912 8bbe 00d9 a1bd eb72 483e
000001d0: 9cb2 70be b4f2 8a3d 4b5c 263d 7ae9 bf3b
000001e0: 2fe6 ee3d c701 b4be 9a1f 26be b3f3 a3be
000001f0: 82c7 45be 1a99 aabe 209a b3bd 2ee9 bb3d
00000200: 3bb3 84be 5cbb 7e3e 9414 2abc ddb1 2d3c
00000210: 36e2 b0bd b0bf 50bd 3c91 c0bd 9841 4dbd
00000220: 27ee abbd 8bd1 0fbe 2ae6 4fbe 1b18 1b3d
00000230: 8b6c 543d 5140 40be 94c1 16be e611 103e
00000240: 0d98 50bd f0e0 e13d c695 473d a9cd ed3d
00000250: 5216 95bd 2229 7c3d 5260 07be 269d 37be
00000260: d2b5 07be 2b2f 95bd 653c 07bd 1e4b 9dbd
00000270: 4de2 113e ac26 a1bc 28ec 26bd 09d9 283d
00000280: 024d 8bbd 5b1f 4f3e e458 bbbe 09ce 73be
00000290: 0476 13bd 449c 3dbe f0f6 253e 46ef 3ebd
000002a0: d571 efbe e0f5 333e d7ad cb3c dcc0 0abe
000002b0: 9bbd 8c3e d217 e23d 7342 1e3e c230 54bd
000002c0: 3f4e 99bc 8e8b 0a3e 23fd 1c3e 01c0 45bd
000002d0: 5684 2a3e deeb 0dbe 032e 33be 3536 6a3d
000002e0: aacb ae3d 9d05 993d 4a9e ebbd 6e29 4f3e
000002f0: e2db 8abd 1b34 cbbe 14da c6bc 2293 2fbe
00000300: 9e84 e8bd 4470 253e 619d 3a3d 336f 88be
00000310: 0dca dc3d 51f2 4e3c b0a0 1ebe 8d4e e83d
00000320: 9430 d83b 5f07 f83d 19ac 76bd 6106 69be
00000330: 873e a73d 224b b4bd 45a4 9e3d a9c3 e5bd
00000340: 596b 6abd 0f88 153e 8aaa 20be 6492 b03d
00000350: 73a6 8f3e 2a8f 0c3e d822 3bbe 2092 bb3d
00000360: 62de 19be db3f e73d f66b 83bd 9fef cfbd
00000370: d5b5 253d 78ad 87bc 7c31 bc3d f371 203e
00000380: 149f cbbe 98c1 6ebe da5e 543d 64ed 5b3d
00000390: 2343 a8be b9c1 86bd 4a07 a5bd 97e4 553c
000003a0: 39b9 d53d 9477 203b df6f 8abe 2005 94be
000003b0: 21f4 32be 8ecd c93c 3e98 0cbf 9ee5 dabc
000003c0: 2a31 4cbe 9522 563d 42c7 9bbe 22be 85bd
000003d0: 8dc6 83be 10fa e0bd 8b69 773e a983 92be
000003e0: 5dde 05bd bba3 aa3d c422 21be 9e61 f6bb
000003f0: da8a 92bd d7e7 3b3c 02c8 94bd 7e71 0c3e
0.037367895 0.14935072 -0.2810644 -0.029903535 -0.05547989 0.0026402157 -0.13115858 -0.018223638
0.17792663 -0.10871079 -0.20379145 -0.051902622 -0.02070249 0.056926742 0.0394022 0.17608297
0.095388286 0.11681187 0.06535131 0.1360892 -0.098848864 0.11766404 -0.27005976 -0.12896629
0.30519092 -0.2860081 -0.09944307 -0.0584678 0.007455481 -0.2518395 -0.07897617 -0.020191958
0.03304743 0.11094911 0.016444646 -0.1524084 0.031923134 0.1855442 0.116959386 -0.11841195
-0.012752078 -0.2406642 -0.07920488 -0.13831525 -0.14721647 -0.057963766 -0.18218228 -0.004126681
0.13824964 0.17701407 -0.28398108 -0.16416912 0.1631773 -0.08946224 -0.26276115 0.17452085
0.14931422 -0.06517029 0.121519245 -0.32936704 0.09061293 -0.1516992 -0.04481214 0.11762395
0.16152066 -0.33579788 -0.2104611 -0.038344227 0.1119887 -0.27361837 0.20944168 0.019297475
0.17946972 0.19694225 -0.1395581 -0.114055224 -0.4761115 0.20084256 0.053622164 -0.20588276
0.010213582 -0.009763784 -0.3427779 0.07355611 -0.076998085 0.020464243 -0.08603784 0.2793129
0.030728854 0.20381834 -0.058337834 -0.21975401 0.042600513 -0.27268177 -0.011205779 -0.03425319
-0.31071737 0.0015857855 -0.06239272 0.14860626 -0.021165757 -0.13610001 -0.08503882 0.13962905
-0.050415847 -0.36399227 -0.5012091 0.21344212 0.42817757 0.17971994 -0.16859974 -0.042065796
-0.2866135 -0.27162674 -0.079027176 0.19575088 -0.23505634 0.06784573 0.04061536 0.00585669
0.11664998 -0.35157606 -0.16222993 -0.32021865 -0.19314387 -0.33319932 -0.087696314 0.09175335
-0.25917992 0.2487616 -0.010380883 0.010601488 -0.08636896 -0.050964057 -0.09402701 -0.050111383
-0.08395033 -0.14044778 -0.20302644 0.037864786 0.051861327 -0.18774535 -0.14722282 0.14069328
-0.050926257 0.110292315 0.04872682 0.11611492 -0.07279648 0.061562665 -0.13220337 -0.17931041
-0.13252953 -0.07284387 -0.03301658 -0.07680343 0.14246483 -0.01967176 -0.04075256 0.041222606
-0.068017974 0.20226805 -0.36591256 -0.23809065 -0.03600122 -0.18516642 0.1620748 -0.046614908
-0.46766534 0.17574263 0.024863167 -0.13550133 0.27488407 0.110396996 0.15455036 -0.05180431
-0.018714068 0.13529798 0.15330939 -0.048278812 0.16652045 -0.13859507 -0.17498021 0.057180602
0.085349396 0.07471774 -0.115048006 0.20230648 -0.067802206 -0.3968819 -0.02427391 -0.1714597
-0.1135342 0.16156107 0.045560244 -0.26647338 0.10780726 0.012631015 -0.15490985 0.11343107
0.006597588 0.12110781 -0.06022272 -0.2275634 0.08166223 -0.08803393 0.07746176 -0.1121896
-0.05723128 0.14602683 -0.15690055 0.08621672 0.28056678 0.13726488 -0.1827501 0.091587305
-0.15026239 0.11291476 -0.06417076 -0.10153126 0.04045661 -0.016562209 0.09189126 0.15668468
-0.39769804 -0.23316038 0.05184827 0.05369319 -0.3286372 -0.065799184 -0.08058031 0.013054988
0.10435719 0.0024485337 -0.27038476 -0.2891016 -0.1747594 0.024634149 -0.54919803 -0.026720818
-0.1994063 0.052279074 -0.3042546 -0.065304056 -0.2573742 -0.10985196 0.24161355 -0.28616074
-0.032682765 0.0833201 -0.15735918 -0.007518961 -0.0715539 0.011468849 -0.07264711 0.13715169

fc3.bias f4 [10]
00000000: d405 eebd 3ec8 b5bd 3f40 f93d 1bc8 16bc
00000010: 64bd 0fbd 7765 d1bd 33f5 0c3c 54a6 f43d
00000020: d16d f53d 670f 223d
-0.116222054 -0.08876084 0.12170457 -0.009202982 -0.035092726 -0.10224431 0.008603382 0.11945787
0.119838364 0.03956547

exp_avg f4 [6, 1, 5, 5]
00000000: 157f 84b8 f33d abbb 07c2 8abb 4820 4abc
00000010: 38b3 aabc 72ab 52bb caca b2bb fbfe d5bb
00000020: 5ecb 12bc fee0 7bbc f936 80bb 6955 35bc
00000030: 6e6f 933a 35ea d0bb b488 45bc b8c4 22bb
00000040: d428 21bc 6810 673b 1595 97bb 06b7 8abb
00000050: dd04 4f3a 8f58 c8bb f10b 3c3b 06a6 523b
00000060: 5e69 b8ba 1a2e af3c a934 b53c 1ea9 9c3c
00000070: dd93 a13c 56db 423c d3e3 b83c 0816 ce3c
00000080: 0f5e b13c fac3 b53c cfa2 603c 93bc b63c
00000090: 2b6b d03c 8e3a c13c c2d1 c13c 59d0 623c
000000a0: 311f ab3c 66e2 963c 7472 843c bb7d 873c
000000b0: 3179 373c 117c 733c 57b5 683c b117 273c
000000c0: 751c 343c f041 9e3b b5bf 6a3c 74e4 e83b
000000d0: 2361 3e3c 8da8 c73b f047 3d3b 1801 a73b
000000e0: a227 5e3b 66db 023c 09f4 ba3a 79c6 76bb
000000f0: 3ee0 ef3b 562e d13b 77fb db3b af89 3b3b
00000100: 4307 c8b8 8933 cc3b 3e4f 0f3c 4d5d c33b
00000110: 4c61 8d3a 126a fd39 4177 de3b 47e1 643b
00000120: 548f 413b 2712 51ba 0f00 44bb 0302 ae3b
00000130: b886 783b f65d 20b9 8afa 0d3c dace 5b3b
00000140: fbfa 453c cbe3 e53b 37ff d23b 024a 193c
00000150: 4b65 d13b 3cc9 9a3c 1e44 5e3c 8a7f 0c3c
00000160: 6306 2c3c 9a8d b93b c337 7b3c 3fde 873c
00000170: 642b 1c3c ed48 0d3c 733f ed3b 9d02 4f3c
00000180: 1d56 663c 34bd 0b3c 2e18 3f3c c63b f53b
00000190: f522 0abd 3900 28bd 5bd3 f5bc 55d0 2cbd
000001a0: 10a4 00bd 5040 b0bc 19bc 00bd 3d5c cabc
000001b0: 51eb 0bbd f74d bebc ab7c cfbc 3f99 f1bc
000001c0: 22ea 97bc 3ba0 16bd 54e1 d9bc cf4e 7abc
000001d0: d6e4 c0bc 4234 cfbc 9ebe 19bd d7c2 d8bc
000001e0: 9394 dfbb 1c0a 89bc 3ea9 87bc bc65 9fbc
000001f0: 4cd7 84bc 75d6 aabc 7f47 cfbc d036 00bd
00000200: 393f afbc b337 5dbc 0712 b5bc 3c3a dcbc
00000210: 7d7b fabc 8353 95bc 1c8c e9bb 35f3 adbc
00000220: a6ae 98bc 1a9f eabc ed73 b0bc af19 d7bb
00000230: a678 97bc 4a41 40bc 432b a2bc f024 a4bc
00000240: e926 26bc 7e82 ea3b e3ad 113c 83b2 8d3b
00000250: 54dc 7c3b 7926 9e3c
-6.317921e-05 -0.005225891 -0.0042345556 -0.012336798 -0.020837411 -0.0032145646 -0.0054563032 -0.00653064
-0.008959619 -0.015373467 -0.0039128033 -0.011067727 0.0011248419 -0.006375576 -0.012056518 -0.0024836492
-0.009836394 0.0035257582 -0.0046259263 -0.004233244 0.0007897148 -0.0061140726 0.002869364 0.0032142415
-0.0014069488 0.021384288 0.022119837 0.01912361 0.019723827 0.011893114 0.022569573 0.02515699
0.021651296 0.022188175 0.013710692 0.022306716 0.025441727 0.023587491 0.02365959 0.013843619
0.020888897 0.018418502 0.016167857 0.016539445 0.011198328 0.014861123 0.014203391 0.01019852
0.010993113 0.0048296377 0.014327933 0.007107312 0.011619839 0.006093091 0.002888199 0.005096566
0.0033898135 0.007986879 0.0014263402 -0.003765492 0.007320433 0.0063836975 0.0067133266 0.0028616001
-9.538096e-05 0.0062317294 0.00874692 0.00596205 0.0010786443 0.0004833495 0.0067891185 0.0034924315
0.0029534893 -0.0007975422 -0.0029907261 0.0053102984 0.0037922096 -0.00015293792 0.00866569 0.0033540041
0.012083764 0.0070156804 0.0064391154 0.009356024 0.006390249 0.018894784 0.013566045 0.00857533
0.01049957 0.005662632 0.015333119 0.016585467 0.0095318295 0.008623344 0.0072402298 0.0126349
0.014058617 0.008528996 0.01166348 0.007483932 -0.033724744 -0.041015837 -0.030008009 -0.04219087
-0.031406462 -0.021515042 -0.031429384 -0.024702186 -0.034159962 -0.023230536 -0.025328001 -0.029492019
-0.01854426 -0.0367739 -0.026596703 -0.0152775785 -0.023546617 -0.025293473 -0.037535302 -0.026460094
-0.0068231313 -0.016728453 -0.016560193 -0.01945769 -0.016215943 -0.020854214 -0.025302647 -0.031302273
-0.021392452 -0.013502049 -0.022103323 -0.026883237 -0.030576462 -0.018228298 -0.007127298 -0.021234134
-0.018637966 -0.028640319 -0.021539653 -0.006564341 -0.018490147 -0.011734316 -0.01979602 -0.020037144
-0.010141113 0.007156669 0.0088915555 0.004324259 0.0038583474 0.019305455

exp_avg_sq f4 [6, 1, 5, 5]
00000000: ce23 e23b 7e73 d73b dccb e83b a226 ea3b
00000010: a15d 0d3c 2944 c83b 1ade c43b e0db d33b
00000020: cadc d23b 06a5 023c 6b75 c03b 4e52 b23b
00000030: f1e9 be3b 8cd7 bc3b 6af9 ed3b 516f a83b
00000040: 59de 973b d49f a93b 8bcd ac3b cc41 d83b
00000050: 1bba 943b 164b 913b 083f a33b 9b51 a83b
00000060: b76d c83b a5ed d23a 59e6 c33a cac5 b93a
00000070: 9916 b63a aabd d13a ed64 c53a 7d75 bd3a
00000080: 7a47 c43a cfb6 c73a 7b61 e23a bea2 bf3a
00000090: b526 c33a d01e d93a 1768 e83a 9b18 ef3a
000000a0: 6678 e03a dede d73a 5c03 f13a abe1 023b
000000b0: f48b 013b 3621 f63a 1593 eb3a 1a59 053b
000000c0: 2cfc 123b 3a8d 0d3b 6ca3 ca3a 09b9 b93a
000000d0: d774 b63a 1452 ac3a b22b b33a cc7d a43a
000000e0: 5712 9e3a 9e09 903a a2ba 8f3a 6313 8f3a
000000f0: 82cb b13a d38a ae3a f1a9 b33a 96e9 ac3a
00000100: d479 9d3a a55c b83a 80c8 aa3a 0131 ad3a
00000110: 615a a93a ce9d 9a3a d73f de3a 191c cd3a
00000120: 524f d03a dea5 c93a 315d b13a 6690 013b
00000130: 13ee 033b d686 fc3a 7a06 de3a 5ce5 e13a
00000140: c0bf db3a e91a e03a 6c33 ce3a e4df c63a
00000150: 977d ce3a d11f c13a b7b1 c63a e8fb be3a
00000160: 05bb c13a 72a8 c73a d679 d03a aebe d53a
00000170: b949 cf3a 675e cb3a 0b35 c83a 6d88 cd3a
00000180: 723a ce3a 4749 ca3a 8f24 cc3a adc4 cb3a
00000190: db95 083c af7c bc3b a3d4 a03b 3f22 b23b
000001a0: f578 c13b d8fe f43b 0db0 b73b 6368 a63b
000001b0: 2651 b13b 7cd9 be3b 4c5a e73b f6f2 b83b
000001c0: 87cb a73b 555a c13b e882 f63b e84a d93b
000001d0: e706 c23b adb6 b03b 14e4 bd3b f637 f63b
000001e0: 5c72 cf3b 8c6c c03b 93ad ae3b dc56 b63b
000001f0: b2f6 e63b 5216 ac3c c86c a63c 2f5b a63c
00000200: b58e 9e3c bff4 9d3c 22d1 a83c 9bb0 a73c
00000210: daf1 a43c b493 a03c b75c 943c 7a30 af3c
00000220: c7b6 a83c eb2b a23c 2daf 9a3c c1d7 8a3c
00000230: 9413 9f3c c490 9c3c 11c7 983c f39a 913c
00000240: 74f5 873c 369d 873c 57ff 853c 3e16 7e3c
00000250: ea97 7e3c 0073 693c
0.006901241 0.006575047 0.00710438 0.0071457187 0.00862828 0.006111641 0.006007922 0.00646542
0.0064350115 0.007973915 0.0058733723 0.0054419404 0.005826228 0.005763 0.0072623985 0.005140223
0.00463466 0.0051765237 0.005273526 0.0065996405 0.004538787 0.004434 0.004981879 0.0051366813
0.0061165947 0.0016092552 0.0014945968 0.0014173326 0.0013892233 0.0016001959 0.0015059985 0.001445457
0.0014974915 0.0015236976 0.0017271483 0.0014620645 0.0014888855 0.0016564969 0.0017731217 0.0018241586
0.0017125725 0.0016469618 0.0018387842 0.0019970934 0.0019767256 0.0018778208 0.0017972911 0.0020347298
0.0022428138 0.002159907 0.001546008 0.0014169525 0.0013920319 0.001314702 0.0013669638 0.0012549697
0.0012059909 0.0010989194 0.0010965655 0.0010915812 0.0013564678 0.0013316519 0.0013707263 0.0013192173
0.0012014457 0.0014065696 0.0013029724 0.0013213457 0.0012920612 0.0011796297 0.0016956282 0.0015648633
0.001589278 0.0015384515 0.0013531802 0.0019769906 0.0020130917 0.0019266258 0.0016939186 0.0017234492
0.001676552 0.0017097864 0.0015731878 0.0015172926 0.0015753981 0.0014734213 0.0015159164 0.0014570924
0.0014780468 0.0015232696 0.001590545 0.0016307437 0.0015814818 0.0015515805 0.0015274597 0.0015680917
0.0015733971 0.0015433215 0.001557486 0.0015546285 0.00833651 0.005752168 0.004908161 0.0054362114
0.005904312 0.007476669 0.0056057037 0.005078362 0.005411285 0.005824266 0.007060325 0.0056441976
0.005120698 0.005900661 0.0075229295 0.006631244 0.005921233 0.0053928704 0.0057950113 0.0075139953
0.0063307714 0.005872315 0.0053307503 0.0055645537 0.0070484513 0.021006737 0.020315543 0.020307152
0.019355157 0.019281743 0.020607535 0.020469954 0.020134855 0.01960168 0.018110616 0.02138542
0.020594968 0.019796332 0.018882358 0.016948583 0.019418515 0.019111998 0.01864961 0.01777408
0.016596533 0.016554456 0.016357107 0.015508233 0.015539149 0.01424861

exp_avg f4 [6]
00000000: 141f ed3b 8817 6e3a 837e 8d3c a458 5ebc
00000010: 4aa9 01bc baa1 97bd
0.007236371 0.0009082486 0.01727224 -0.013570938 -0.007913897 -0.07403894

exp_avg_sq f4 [6]
00000000: 45e0 833c f8b4 853b c3df 823b 86e9 f43a
00000010: 73ac 903c 8c0b 6b3d
0.016098151 0.004080411 0.0039939596 0.0018685318 0.017660355 0.05738406

exp_avg f4 [16, 6, 5, 5]
00000000: 39e9 9c3a 8868 b63a 1b31 1e3a 7b07 163b
00000010: cdb5 b539 f118 3fbb 44cf b83a 34ff 963a
00000020: 95ff 64ba 67c4 09bb 63c3 86ba cf9f bb3a
00000030: 6d7c 223a 068f 5937 f08a 9cb9 c5ac 0dbb
00000040: 02ac 17bb 183b 91ba 9954 dbba ef64 adba
00000050: eb65 7fbb ed8b 2fbb 162d f73a 8c5c 1e3a
00000060: 5851 453a 0fda 4dba 6402 04bb a1b7 59bb
00000070: 2dc2 fbba aaf8 cbba 780b 44ba 3c5f 3ebb
00000080: f0b2 3abb 4275 10bb a253 5fbb c02a 00bb
00000090: fbfa 813a 4087 05bb 758b b2ba e980 2fbb
000000a0: 3e57 ef3a d57f 673b 8d4d 8b3a 1920 0d3a
000000b0: 4bd3 3c39 7570 5e3b 2a7a d83a e016 dd3a
000000c0: 56bf 443b 139b a73b 4149 a9ba e49b 96ba
000000d0: bf3f b7b9 8f55 6eb9 f2fc 603a f133 2eb9
000000e0: d888 9f3a 51ef 873a 6ded a43a 2ece 983a
000000f0: e954 12ba fa9c c23a c75c b63a 36e3 0db8
00000100: 32c6 1db9 4b5b 87b9 46b8 00b9 aa76 733a
00000110: ccdc c4b9 2ab6 2db9 fe53 beba 72fd f5b8
00000120: 4b0a 28ba 8574 0cbb 4e6c 3bbb cfc4 8bba
00000130: bdab 7abb 67e1 9cbb 401e abbb c52d 3dbb
00000140: 4e6c a3ba f4d9 cbbb db72 bcbb 031b 93bb
00000150: b1cf 5bbb edbe 12bb f6ad 97bb cf64 c6bb
00000160: 6c2c 8abb 76a8 85bb 310e f5ba 9dc9 2aba
00000170: eadd 9ebb 51fc 1bbb 9555 58bb 81f4 dd3a
00000180: 1084 803a 2b01 a3bb 3964 16bb ecf3 0bbb
00000190: 6265 7e3b cd93 b4bb 40ea 063a 8fcd afba
000001a0: 605f 323b b9e2 083b 160f 43bb 8750 7139
000001b0: f5e2 5c38 1f7d 963a be14 aa3a 167e 97bb
000001c0: 2993 403a 6ff5 063b b686 5639 f2dd c2b8
000001d0: 7c07 d4bb 2e3f 8136 3efe 193a 429e a0ba
000001e0: fe6c d039 34ea c9bb ba01 873a 8ffe 0a3b
000001f0: d4e0 dc3a e71a fdba ad7a 8ebb 3da4 a43b
00000200: f069 ab37 db24 85ba c767 cfbb cceb 80bb
00000210: dcf0 603b db0a 23ba 1ab1 97ba 6cbd 08bc
00000220: 7e3b c5bb daed 073b 1aab 09b8 88ee 93ba
00000230: f89d 2cbc cffd f4bb 76fb fa3a e019 bc39
00000240: 0fd6 1839 aea8 45bc fb08 dbbb 1a79 823b
00000250: e0ff 5d39 d4e7 583a 947c a43b 2453 8f3b
00000260: eaa3 f9b9 91b6 5e3b 3418 c8b9 0cf6 9a3b
00000270: ef3d 843b 8d24 853b 9ac4 d23b ae33 763b
00000280: 3cb2 dc3b a139 b43b 55c2 a33b 7380 d53b
00000290: fa32 6e3b ae36 bb3b 813a 723b de46 783a
000002a0: 685c 5e3b b46b 3d3a 673e 323b eb09 823b
000002b0: d179 363b 744d ca3b dc75 4d3b 7c7a 863a
000002c0: 6efc 2739 edc8 5e39 d668 81bb 9e02 10bb
000002d0: c713 7d3a 9db0 6a3a 0432 e3ba 72dc 89bb
000002e0: 3e15 e4ba 3ee0 9cba 85df 98ba 3b97 26bb
000002f0: 0cdc 9ebb dc2f 1ebb 76f8 f13a 12a6 8539
00000300: 4ff3 143a 5064 2fbb bda0 e3b9 11a3 ee3b
00000310: 52fd 863b f698 3b3b 7612 b33b f392 283c
00000320: 0814 96ba 8d8e 783a 95e0 a73a 6689 e23b
00000330: 92d9 983b ac75 08bb 8958 003b 96e6 3c3b
00000340: 999a aa3b 7738 9b3b 2d59 a2bb 7f80 2b3a
00000350: 02ec e639 0c7a 0a3c 9791 943b 329d 9bbb
00000360: b196 743a f1f7 2839 451b 213c bdde c43b
00000370: e68a a9bb 4edc ce39 117d 1eb9 0561 c43b
00000380: a662 0f3b 06f0 193b 2c00 8d3a 46b6 2cbb
00000390: 4be3 c9bb 1f2b 30bb cf04 b73a 6e90 a33a
000003a0: 334c 80bb 1c4a fabb 25ac a3bb 1a8d c7b8
000003b0: 547e bb39 29a9 c9bb ea95 2fbc b99c c2bb
000003c0: 4468 1dbb 1132 2abb 1559 d1bb e115 49bc
000003d0: 4a7a ecbb b3eb d1ba 814c 0dbb 1ba6 89bb
000003e0: ff05 26bc 422e b0bb c795 da3b 7ceb 173b
000003f0: 7e1e d3bb 7752 143a 9067 bbba cd3d 883b
0.0011971361 0.0013916651 0.0006034539 0.0022892642 0.00034658462 -0.0029159153 0.0014099856 0.0011520148
-0.00087355945 -0.0021021606 -0.0010281618 0.0014314594 0.00061983505 1.2967508e-05 -0.00029858155 -0.0021617871
-0.0023143296 -0.0011080233 -0.0016733586 -0.0013228933 -0.003897066 -0.0026786283 0.0018858041 0.0006041012
0.0007527075 -0.00078526227 -0.0020143026 -0.0033221024 -0.0019207649 -0.0015561779 -0.00074785156 -0.0029048463
-0.0028488003 -0.0022042547 -0.0034076949 -0.001955673 0.0009916717 -0.0020374805 -0.0013621884 -0.0026779717
0.0018260253 0.0035323997 0.001062797 0.0005383506 0.0001800779 0.0033941541 0.00165159 0.0016867779
0.0030021272 0.005114922 -0.0012915508 -0.0011490551 -0.00034951975 -0.00022729322 0.00085826137 -0.00016613283
0.001217152 0.0010371004 0.0012582965 0.0011658126 -0.00055821106 0.0014847808 0.0013913148 -3.3828626e-05
-0.0001504652 -0.00025817225 -0.00012275678 0.00092873967 -0.0003754854 -0.00016566427 -0.0014520881 -0.00011729718
-0.0006410225 -0.0021431756 -0.002859849 -0.0010663512 -0.0038249337 -0.0047876122 -0.005222112 -0.0028866392
-0.001246819 -0.0062210504 -0.0057509965 -0.004489304 -0.0033540542 -0.0022391633 -0.004628892 -0.006054498
-0.0042167213 -0.00407892 -0.0018696246 -0.0006515028 -0.0048482316 -0.0023801515 -0.0033009995 0.001693383
0.0009804983 -0.0049745045 -0.002294792 -0.0021355106 0.0038817753 -0.0055107833 0.00051466003 -0.0013412702
0.0027217492 0.002088709 -0.002976363 0.0002301355 5.2663458e-05 0.0011481381 0.0012976152 -0.004623185
0.00073461473 0.0020593067 0.00020458814 -9.2919814e-05 -0.006470619 3.8518547e-06 0.0005874372 -0.0012254196
0.00039754057 -0.0061619524 0.0010300197 0.0021208858 0.0016851672 -0.0019310386 -0.00434812 0.0050244615
2.043412e-05 -0.0010158079 -0.00632951 -0.003934359 0.003432325 -0.0006219574 -0.0011573166 -0.008345943
-0.006019055 0.0020741136 -3.2822696e-05 -0.0011286298 -0.01053571 -0.0074765454 0.0019148428 0.00035877433
0.00014575593 -0.012064142 -0.00668442 0.0039817216 0.00021171523 0.0008274291 0.0050197337 0.004373925
-0.00047615106 0.003398333 -0.00038165005 0.004729038 0.0040357034 0.004063195 0.006432128 0.0037567425
0.0067351144 0.005500034 0.0049975314 0.0065155565 0.0036346302 0.0057133054 0.003696114 0.0009471009
0.003392959 0.0007225827 0.002719784 0.0039684675 0.0027843604 0.006173784 0.0031350767 0.0010259892
0.00016020398 0.0002124642 -0.003949265 -0.0021974216 0.0009654131 0.0008952709 -0.0017333631 -0.0042071873
-0.001740135 -0.0011968685 -0.0011663294 -0.002541973 -0.004848009 -0.0024137413 0.0018460888 0.0002549147
0.0005682008 -0.0026762672 -0.00043416573 0.0072826226 0.0041195536 0.0028625107 0.005464847 0.010288942
-0.0011450062 0.0009481691 0.001280802 0.006913352 0.0046646083 -0.002082209 0.001958402 0.0028823963
0.0052064178 0.0047369557 -0.0049544782 0.000654228 0.00044044858 0.00845195 0.004533957 -0.0047489638
0.0009330316 0.00016114094 0.009833162 0.006007998 -0.0051740287 0.00039455522 -0.00015114645 0.005993011
0.0021878867 0.0023489012 0.0010757498 -0.002635376 -0.0061611286 -0.002688117 0.0013963225 0.0012478956
-0.0039153337 -0.007638229 -0.0049948865 -9.515342e-05 0.0003576154 -0.0061541987 -0.010716895 -0.005939093
-0.0024018446 -0.0025969783 -0.0063887932 -0.012273283 -0.0072167264 -0.0016015678 -0.0021560492 -0.0042007095
-0.0101332655 -0.005376608 0.006670687 0.002318113 -0.006442844 0.000565804 -0.0014297832 0.004157758
